classifier/models/basic_model.pth (torch_old, 648080 bytes, 8 tensors)

conv1.weight f4 [6, 3, 3, 3]
0.045090854 -0.04234622 -0.1538869 -0.2918018 -0.15268002 -0.22792532 -0.2965124 -0.27447826
-0.19269925 0.0070078955 0.116418146 0.14784543 0.13776028 0.0025119542 -0.11122266 -0.059965283
0.024044406 0.15763971 0.062194306 0.24249639 0.053672086 0.18930891 0.34062022 0.36186695
0.17358312 0.20620222 0.17915346 0.07140117 -0.16655554 -0.22800922 -0.2248963 0.0073880055
0.07984956 0.1505998 0.13268842 -0.06688806 0.07498466 -0.11010879 -0.099231645 0.025921443
0.09361916 0.07387714 0.01970533 -0.14111096 0.083527766 0.078528754 -0.10974499 -0.0074500437
0.19741146 0.02669494 0.16879599 0.2481023 -0.10370915 0.057088673 0.093882605 -0.14337064
0.15119694 -0.006181449 0.21447039 0.0008576199 -0.062042616 0.053052764 0.010142802 0.013467129
0.16905066 -0.070840806 -0.15958756 -0.09824943 0.055854544 0.073555395 -0.0154509945 0.1460574
-0.08604641 -0.048957903 0.18517956 0.02577175 0.009949115 -0.03463194 -0.017025175 0.035087682
0.15102926 0.040826958 0.2234273 0.09019491 0.23337021 -0.096598655 0.08597324 0.047499802
0.11475607 -0.15279728 0.24652642 0.17146778 0.1223954 0.28797886 0.049761496 0.23825142
0.37127045 0.27131462 -0.046388783 0.33166265 0.18131831 -0.048343197 0.27146918 0.27221736
-0.0065382076 0.30497065 0.25796133 0.1949757 0.03299877 0.14196661 0.32590228 0.4341778
0.21992883 0.21998288 0.3654617 0.099340804 0.36466473 -0.20097144 -0.15615465 0.16465425
0.03911768 0.10979948 0.10015789 0.1042985 0.19657758 0.08836494 -0.19699846 -0.04275976
0.037232626 -0.14812872 0.03974738 -0.2400409 -0.078448944 -0.28357244 -0.21796368 -0.3261739
-0.14786752 -0.116195336 -0.34739965 -0.32951513 -0.31283143 -0.26100123 -0.20926422 -0.14529529
-0.28849918 -0.33991414 -0.02513719 -0.14953049 -0.028414018 -0.1728322 -0.2878599 -0.12087067
0.05055554 -0.039000973 0.08226548 0.1379236 0.0074245334 0.16788252 0.008609178 0.16512232
0.24831058 0.30038705
00000000: 30b1 383d 3b73 2dbd 8794 1dbe 0c67 95be
00000010: 2758 1cbe 4165 69be 79d0 97be 6a88 8cbe
00000020: f452 45be 7da2 e53b a36c ee3d cb64 173e
00000030: 0811 0d3e 999f 243b b5c8 e3bd 289e 75bd
00000040: c6f8 c43c 4e6c 213e 75bf 7e3d f950 783e
00000050: 43d7 5b3d 32da 413e c665 ae3e a046 b93e
00000060: c6bf 313e ad26 533e 0174 373e c73a 923d
00000070: 898d 2abe 407b 69be 374b 66be 1517 f23b
00000080: 2b88 a33d d536 1a3e 79df 073e 9bfc 88bd
00000090: 8f91 993d b880 e1bd f639 cbbd 3559 d43c
000000a0: 67bb bf3d e64c 973d 126d a13c 647f 10be
000000b0: 9b10 ab3d afd3 a03d fbc1 e0bd 7f1f f4bb
000000c0: 3b26 4a3e 59af da3c dbd8 2c3e 880e 7e3e
000000d0: 7665 d4bd d0d5 693d 8645 c03d c1cf 12be
000000e0: 5fd3 1a3e c18d cabb 209e 5b3e e6d1 603a
000000f0: 6620 7ebd db4d 593d ff2d 263c 3ca5 5c3c
00000100: 9e1b 2d3e fc14 91bd ec6a 23be ff36 c9bd
00000110: bcc7 643d 36a4 963d 2b26 7dbc 1290 153e
00000120: 1a39 b0bd 1588 48bd b69f 3d3e 471f d33c
00000130: 9d01 233c 39da 0dbd 6178 8bbc 1ab8 0f3d
00000140: 6aa7 1a3e 2b3a 273d 20ca 643e 1cb8 b83d
00000150: 9af8 6e3e 84d5 c5bd bd12 b03d 278f 423d
00000160: 3b05 eb3d e476 1cbe 6c71 7c3e 4095 2f3e
00000170: 71aa fa3d f771 933e b6d2 4b3d 2ef8 733e
00000180: 2917 be3e c0e9 8a3e 2a02 3ebd b0cf a93e
00000190: 82ab 393e 8403 46bd 02fe 8a3e 1360 8b3e
000001a0: 763e d6bb 1d25 9c3e 8213 843e b6a7 473e
000001b0: b829 073d b25f 113e aadc a63e 8d4c de3e
000001c0: 0635 613e 3143 613e cc1d bb3e 3173 cb3d
000001d0: 56b5 ba3e 75cb 4dbe 01e7 1fbe 209b 283e
000001e0: dc39 203d 8dde e03d 941f cd3d 749a d53d
000001f0: a24b 493e adf8 b43d f7b9 49be dc24 2fbd
00000200: 3d81 183d 0eaf 17be 26ce 223d 48cd 75be
00000210: d7a9 a0bd 6830 91be df31 5fbe 4400 a7be
00000220: 956a 17be d2f7 edbd 5ede b1be 35b6 a8be
00000230: 712b a0be f4a1 85be 5c49 56be 4ac8 14be
00000240: 2ab6 93be 3a09 aebe 82ec cdbc 851e 19be
00000250: 84c4 e8bc edfa 30be 5f62 93be 0b8b f7bd
00000260: 5313 4f3d 7cbf 1fbd ce7a a83d d83b 0d3e
00000270: 8049 f33b 65e9 2b3e 820d 0d3c d315 293e
00000280: 2145 7e3e 55cc 993e

conv1.bias f4 [6]
0.07286387 -0.014603934 0.1487213 0.28971133 0.24677573 0.09114634
00000000: a739 953d 5745 6fbc 654a 183e 0b55 943e
00000010: c7b2 7c3e efaa ba3d

conv2.weight f4 [16, 6, 3, 3]
-0.019946447 0.026312029 -0.06696548 -0.066350445 0.17102057 -0.013753136 -0.07560681 0.13133696
-0.0123412935 -0.0771637 0.1260335 0.061124258 -0.1007168 -0.010036377 -0.019400556 -0.033385757
-0.122763254 0.12887056 -0.07932668 -0.0429829 0.021741087 0.08210929 0.025456483 0.09898094
-0.08441862 -0.0072719157 0.08552535 -0.21587425 -0.07756063 -0.08348575 -0.036602035 -0.09446696
-0.14392138 0.014270268 -0.12821408 0.030201841 -0.16320154 -0.18229687 -0.033651866 -0.101715766
-0.18477483 0.013098199 -0.15466793 0.02611894 0.13425824 0.2595475 0.1827425 0.29387033
0.2748495 0.29339018 0.15428145 0.15182276 0.15517436 0.2216069 -0.09084604 -0.12692103
-0.14922981 -0.093692295 0.07467202 -0.09835347 -0.03771992 0.022965576 0.079239175 -0.022435267
-0.12921523 1.9711346e-05 -0.018634778 0.05344787 -0.07468361 0.052618135 0.073056504 -0.07568063
0.13001215 0.04997799 -0.027887942 -0.093214884 -0.0061735115 0.074968465 0.09477983 0.017763134
-0.005539982 -0.020056717 -0.09395168 -0.16637906 0.14931333 -0.09266261 -0.10451534 0.10654547
0.10341885 -0.009872302 0.07398765 0.23732902 0.26251867 0.048926353 0.2568382 0.044192534
0.23354998 0.16252176 0.12404665 0.030141858 0.008926925 0.07177811 -0.140553 0.09019827
-0.13673818 -0.13382772 -0.11247754 -0.17196046 0.12938705 0.17801209 0.03294857 0.03942276
0.06920314 0.12074772 0.18873739 -0.0047726734 0.023363102 0.06480526 0.100203395 0.09279673
0.09865774 0.094157234 0.10035524 -0.08042661 0.13657543 -0.065994956 0.12235237 -0.0849349
-0.031968556 0.037107863 -0.06878483 -0.048953835 0.15854974 0.07237272 -0.07173834 0.18215977
0.18966575 0.1367973 0.15457304 0.24929132 0.020897249 0.18682376 0.18240973 0.022035066
-0.04954225 -0.12625137 -0.13162076 -0.109606266 0.029514616 0.024022914 0.04574224 0.035870247
-0.15061091 -0.0119967 -0.022011831 0.12547587 -0.057824306 0.05211517 0.0395862 0.09708159
-0.11695143 0.0034671344 0.06908639 -0.030695027 -0.124548934 0.0150659485 0.08101298 0.0021498583
0.021259373 -0.03447628 -0.10795813 0.08289427 0.1066447 0.0024993415 0.08655035 0.062272098
-0.06311902 0.09788888 -0.14221364 -0.09902289 -0.06961895 -0.06853781 -0.11378085 -0.028013673
0.1651015 -0.026541274 0.06235113 -0.008738438 -0.0047444426 -0.1589765 -0.17035526 0.082105696
-0.07195392 0.04745476 0.12925605 0.0003655508 0.083936 0.07005651 0.2409537 0.044177324
0.26436633 0.29470804 0.20874883 0.13164231 0.11609439 0.19098042 0.23318274 -0.06354128
-0.097816534 -0.09245951 -0.18063864 -0.05828123 -0.0147434585 -0.13837123 -0.13675988 -0.07243169
0.079369545 0.021788873 -0.14329834 0.05399869 -0.00012354567 -0.11281325 0.0026674857 0.02722033
-0.104512654 0.039577372 0.07002905 0.014914996 -0.07136225 0.057543173 0.07503803 -0.026696933
-0.09993885 -0.09660295 0.06546366 -0.0067728064 0.10620792 0.06469418 0.07463558 -0.12174595
0.1281263 0.10168563 -0.1389579 0.18960185 0.20775393 -0.043735676 -0.017869376 0.16210599
0.10829152 0.15874352 0.18482536 0.009223962 0.09307932 0.16617544 0.13198043 0.0034668094
00000000: bb66 a3bc 538c d73c 3325 89bd bee2 87bd
00000010: 0420 2f3e d554 61bc bed7 9abd 327d 063e
00000020: 2333 4abc 0008 9ebd ed0e 013e 6e5d 7a3d
00000030: 9c44 cebd 9e6f 24bc eaed 9ebc 81bf 08bd
00000040: 4d6b fbbd a5f6 033e 0776 a2bd d60e 30bd
00000050: 5d1a b23c ea28 a83d 1d8a d03c 85b6 ca3d
00000060: abe3 acbd 4049 eebb ea27 af3d 240e 5dbe
00000070: 1cd8 9ebd 94fa aabd 04ec 15bd e577 c1bd
00000080: 2060 13be d8cd 693c 8d4a 03be da69 f73c
00000090: 4e1e 27be 08ac 3abe 8ad6 09bd 5b50 d0bd
000000a0: 9d35 3dbe d499 563c 4561 1ebe 63f7 d53c
000000b0: fe7a 093e 69e3 843e da20 3b3e 2c76 963e
000000c0: 13b9 8c3e 3d37 963e f5fb 1d3e 6d77 1b3e
000000d0: 07e6 1e3e ebec 623e 7d0d babd 96f7 01be
000000e0: b3cf 18be bfe1 bfbd a5ed 983d 8b6d c9bd
000000f0: 3480 1abd 4e22 bc3c 2648 a23d 2aca b7bc
00000100: ff50 04be cb59 a537 f6a7 98bc 27ec 5a3d
00000110: b8f3 98bd 1d86 573d a69e 953d 72fe 9abd
00000120: e821 053e b9b5 4c3d 4175 e4bc 72e7 bebd
00000130: 2b4b cabb 1189 993d ed1b c23d fe83 913c
00000140: bd88 b5bb fc4d a4bc bd69 c0bd 465f 2abe
00000150: 98e5 183e e5c5 bdbd 230c d6bd 8334 da3d
00000160: 43cd d33d 70bf 21bc d686 973d 6106 733e
00000170: d968 863e 0067 483d 4c80 833e 3b03 353d
00000180: ba27 6f3e 1b6c 263e 2c0c fe3d 0fec f63c
00000190: 3d42 123c 6700 933d 20ed 0fbe dfb9 b83d
000001a0: 1805 0cbe 220a 09be a05a e6bd 6716 30be
000001b0: 0a7e 043e cd48 363e 14f5 063d c379 213d
000001c0: 60ba 8d3d 954a f73d 6044 413e 1664 9cbb
000001d0: fa63 bf3c 9fb8 843d 7037 cd3d 360c be3d
000001e0: 120d ca3d 82d5 c03d 0c87 cd3d b5b6 a4bd
000001f0: 6eda 0b3e 5d28 87bd e193 fa3d 59f2 adbd
00000200: 76f1 02bd 6afe 173d 10df 8cbd d183 48bd
00000210: dd5a 223e 2638 943d 8deb 92bd 1788 3a3e
00000220: bd37 423e 9714 0c3e 6548 1e3e 3946 7f3e
00000230: b530 ab3c ba4e 3f3e 9ec9 3a3e e282 b43c
00000240: d0ec 4abd 0a48 01be 98c7 06be 4079 e0bd
00000250: a3c8 f13c b4cb c43c 375c 3b3d aeec 123d
00000260: bf39 1abe cf8d 44bc 2852 b4bc bf7c 003e
00000270: 2ed9 6cbd b776 553d 2425 223d b6d2 c63d
00000280: 3b84 efbd dd38 633b 2a7d 8d3d 2374 fbbc
00000290: 8313 ffbd 2bd7 763c 22ea a53d a3e4 0c3b
000002a0: 2328 ae3c 0037 0dbd 2719 ddbd 79c4 a93d
000002b0: 8968 da3d fecb 233b 4f41 b13d 0711 7f3d
000002c0: 8b44 81bd f779 c83d 74a0 11be 83cc cabd
000002d0: 6194 8ebd 8d5d 8cbd ef05 e9bd ee7c e5bc
000002e0: 5e10 293e 166d d9bc e663 7f3d aa2b 0fbc
000002f0: 4577 9bbb bcca 22be 9c71 2ebe 0827 a83d
00000300: 945c 93bd ec5f 423d b35b 043e 66a7 bf39
00000310: a3e6 ab3d ca79 8f3d 91bc 763e 48f3 343d
00000320: 065b 873e f9e3 963e 41c2 553e 3ecd 063e
00000330: e5c2 ed3d 5f90 433e 75c7 6e3e ee21 82bd
00000340: 0954 c8bd 695b bdbd 56f9 38be 4db8 6ebd
00000350: 8c8e 71bc 30b1 0dbe c80a 0cbe 1157 94bd
00000360: 808c a23d 947e b23c cdbc 12be bb2d 5d3d
00000370: 0a8c 01b9 a20a e7bd fcd0 2e3b 2bfd de3c
00000380: bb0a d6bd e21b 223d 646b 8f3d 075e 743c
00000390: 5f26 92bd 64b2 6b3d 8aad 993d 87b3 dabc
000003a0: bdac ccbd c4d7 c5bd d011 863d 6bee ddbb
000003b0: 8a83 d93d 627e 843d 8ada 983d f155 f9bd
000003c0: 8a33 033e 8e40 d03d fb4a 0ebe fd26 423e
000003d0: 72bd 543e 2e24 33bd cc62 92bc 1dff 253e
000003e0: f2c7 dd3d a98d 223e dc42 3d3e 1a20 173c
000003f0: 5fa0 be3d e529 2a3e e125 073e 6933 633b

conv2.bias f4 [16]
0.29377112 0.16454667 -0.029764991 0.10514272 -0.06341313 0.028532285 -0.12865232 0.09471886
-0.06867164 -0.029234765 0.017008118 -0.11087581 0.043423075 0.034591235 0.041656718 -0.004483419
00000000: 2b69 963e ec7e 283e b6d5 f3bc 1155 d73d
00000010: bede 81bd 8abc e93c 6fbd 03be f6fb c13d
00000020: b7a3 8cbd bf7d efbc 9c54 8b3c db12 e3bd
00000030: 65dc 313d 8aaf 0d3d 3ca0 2a3d a5e9 92bb

fc1.weight f4 [128, 1248]
0.019887352 -0.019125352 7.936364e-05 0.0114025725 0.018909486 -0.012100271 0.023208078 0.00710045
-0.015327053 0.015191314 0.015472279 0.008511783 -0.027950633 0.023822844 0.023079755 0.012883231
-0.024968477 -0.013864242 -0.018621262 0.011701976 -0.02152912 -0.02464173 0.0021380498 -0.0033938254
-0.0067940066 -0.0065901456 0.025937553 -0.017174764 0.019376514 -0.012474022 -0.012028757 0.02641788
-0.0021674812 -0.0059431046 -0.008554845 -0.026496787 0.014610889 -0.0076401597 0.019893363 -0.00232009
-0.0060863467 0.023093684 -0.02183716 -0.026040833 -0.007908865 0.016505769 -0.0006353387 -0.009271435
0.0064866114 0.011223047 0.025031278 -0.025085343 -0.012882327 0.022424882 -0.012185683 -0.024303405
0.010459079 -0.009020179 -0.0094506545 -0.021973485 0.010606246 -0.023151398 0.02229465 -0.015579818
-0.02937885 -0.00040592882 -0.0025952864 -0.018649977 -0.0019633777 -0.003568319 0.0121237915 0.005795305
0.023931444 0.019506421 0.020600554 -0.013390841 -0.018667702 -0.025704283 -0.009206088 0.022808295
-0.0018393754 0.009862804 -0.015405923 0.005883158 0.00071710395 -0.005728688 -0.011884767 0.0003325088
-0.008024541 -0.025581436 -0.018640682 0.011324207 -0.024635158 -0.024367433 -0.01924823 -0.0070656803
-0.0005691275 -0.023192637 -0.021979323 -0.0074169706 -0.019737642 0.00866705 -0.01937268 0.00052995834
-0.0066661094 0.016358975 0.02176103 0.005044757 0.024736436 -0.027982427 0.025740586 -0.012612097
0.010116375 -0.01782358 -0.0017338531 -0.021728422 0.023415675 0.0022199582 -0.00953417 -0.013834817
0.025054943 0.021128794 -0.024143375 0.019025354 -0.009724561 0.020446595 -0.0008997295 -0.011098824
0.0043815733 -0.003044242 0.008828934 0.0050945263 -0.018987423 0.023736686 -0.009575957 -0.0015439462
-0.004082883 -0.020523675 0.027411321 0.014737183 -0.012149541 -0.025719311 -0.015890177 -0.021325441
-0.022192836 0.019609585 -0.008981344 0.024535608 0.011819582 0.0016576035 -0.013309432 -0.009672065
0.010883479 -0.022815678 -0.01692992 -0.012798981 0.017701397 0.021583894 -0.024686877 -0.020633802
0.0029146064 0.014555237 0.024017997 -0.014320219 0.0048367493 -0.027391454 -0.018288124 -0.025168335
0.006180783 0.0038198724 -0.0021346929 0.022155479 -0.009329936 -0.011966095 0.015010126 0.024547042
-0.0074606757 0.009895015 0.0129682515 0.018975947 -0.0007620767 0.007455441 -0.012434842 -0.019753784
0.010352251 -0.013600917 -0.013661612 -0.010843798 -0.011074987 0.0028231023 -0.019358892 0.021705355
0.03037216 -0.024604952 -0.013714866 -0.028238766 -0.006274279 -0.008237032 -0.00054767414 -0.00066572014
-0.005779458 0.022241157 0.021526773 -0.029437209 0.013394128 0.00315331 -0.012820381 -0.022574332
-0.019621955 0.024110949 0.0031707361 0.005578168 -0.0027229371 -0.022021623 0.013807218 0.020297166
0.031704284 0.017640043 0.021505821 0.011651748 0.0015397373 -0.020554287 0.018927122 0.020673776
-0.005660055 -0.006016269 -0.025846696 0.026476225 -0.0062235435 0.024956634 -0.021141373 0.016570583
0.0043772585 -0.01828124 -0.009674298 -0.01092517 0.012778031 -0.025658503 -0.030005798 0.0023004338
0.0160051 -0.020958874 -0.0065239654 0.006929124 -0.018537793 -0.015548117 -0.010529211 0.015888385
0.021852626 0.00069495465 -0.006893013 -0.013672487 0.01135994 0.00015973371 0.020685658 0.005638674
00000000: cdea a23c c5ac 9cbc 0870 a638 dbd1 3a3c
00000010: 11e8 9a3c 3740 46bc de1e be3c e4aa e83b
00000020: 521e 7bbc fde4 783c 717f 7d3c 0175 0b3c
00000030: baf8 e4bc 2028 c33c c111 bd3c 3014 533c
00000040: b18a ccbc d826 63bc 9e8b 98bc a5b9 3f3c
00000050: d65d b0bc 74dd c9bc 861e 0c3b f16a 5ebb
00000060: 42a0 debb 26f2 d7bb fe7a d43c 17b2 8cbc
00000070: 7fbb 9e3c d75f 4cbc 4314 45bc 4f6a d83c
00000080: 4d0c 0ebb 60be c2bb 9f29 0cbc ca0f d9bc
00000090: 8362 6f3c 4e5a fabb 68f7 a23c a70c 18bb
000000a0: fa6f c7bb f72e bd3c d8e3 b2bc 9653 d5bc
000000b0: 2f94 01bc 1b37 873c dc8c 26ba 38e7 17bc
000000c0: a48d d43b dfe0 373c 650e cd3c c77f cdbc
000000d0: 6510 53bc 63b4 b73c 75a6 47bc ef17 c7bc
000000e0: 8f5c 2b3c 5fc9 13bc ebd6 1abc bd01 b4bc
000000f0: d2c5 2d3c 00a8 bdbc 45a3 b63c 7e42 7fbc
00000100: eaab f0bc d8d2 d4b9 ae15 2abb d6c7 98bc
00000110: 03ac 00bb 75da 69bb dea2 463c 8be6 bd3b
00000120: e00b c43c eecb 9f3c 7ec2 a83c 4265 5bbc
00000130: 02ed 98bc ca91 d2bc 22d5 16bc 76d8 ba3c
00000140: 3217 f1ba 9997 213c 2069 7cbc 82c7 c03b
00000150: 08fc 3b3a b8b7 bbbb 53b8 42bc 9354 ae39
00000160: 5d79 03bc 2990 d1bc 58b4 98bc 2b89 393c
00000170: accf c9bc 369e c7bc 77ae 9dbc 3987 e7bb
00000180: 8031 15ba 7cfe bdbc fb0d b4bc 0f0a f3bb
00000190: d6b0 a1bc 3e00 0e3c 74b3 9ebc e7ec 0a3a
000001a0: 616f dabb 4203 863c 3044 b23c 7d4e a53b
000001b0: 11a4 ca3c 673b e5bc ecdd d23c f8a2 4ebc
000001c0: 27bf 253c c202 92bc 7542 e3ba ceff b1bc
000001d0: 3bd2 bf3c b87c 113b 3535 1cbc 6eab 62bc
000001e0: 0640 cd3c 4b16 ad3c 54c8 c5bc 0fdb 9b3c
000001f0: c453 1fbc 9e7f a73c d3db 6bba d8d7 35bc
00000200: 4d93 8f3b e881 47bb 3ca7 103c fcef a63b
00000210: 838b 9bbc 7073 c23c 7ae4 1cbc 3d5e caba
00000220: b4c9 85bb 4421 a8bc b58d e03c 3a74 713c
00000230: de0e 47bc 4eb1 d2bc 1e2c 82bc b1b2 aebc
00000240: c0cd b5bc 48a4 a03c 7d26 13bc e6fe c83c
00000250: eca6 413c f243 d93a ce0f 5abc 9577 1ebc
00000260: 9f50 323c f2e7 babc 9eb0 8abc d1b2 51bc
00000270: 8502 913c b5d0 b03c 223c cabc 3808 a9bc
00000280: fb02 3f3b 1779 6e3c 64c1 c43c 5a9f 6abc
00000290: 987d 9e3b 0b64 e0bc fad0 95bc d32d cebc
000002a0: 2a88 ca3b d356 7a3b 34e6 0bbb 687f b53c
000002b0: 96dc 18bc 710d 44bc 08ed 753c e116 c93c
000002c0: af78 f4bb b31e 223c ca78 543c 7273 9b3c
000002d0: 1ac6 47ba c64c f43b 82bb 4bbc b0d2 a1bc
000002e0: 7d9c 293c 61d6 5ebc f4d4 5fbc 2faa 31bc
000002f0: dd73 35bc cc03 393b 8a96 9ebc 6ecf b13c
00000300: 09cf f83c 5390 c9bc 51b4 60bc fc54 e7bc
00000310: 7898 cdbb 9ef4 06bc ca91 0fba b983 2eba
00000320: 9c61 bdbb 1633 b63c ea58 b03c 4d26 f1bc
00000330: 0b73 5b3c c3a7 4e3b 930c 52bc ceed b8bc
00000340: 39be a0bc 5384 c53c 20cc 4f3b 11c9 b63b
00000350: 4e73 32bb b166 b4bc ab37 623c 3e46 a63c
00000360: 5adc 013d da81 903c fa2c b03c f9e6 3e3c
00000370: 03d1 c93a 7761 a8bc 0d0d 9b3c 0d5c a93c
00000380: fc77 b9bb 1f24 c5bb 73bc d3bc abe4 d83c
00000390: deee cbbb db71 cc3c ac30 adbc 08bf 873c
000003a0: 1b6f 8f3b 8ac2 95bc f280 1ebc 7cff 32bc
000003b0: f25a 513c c831 d2bc b8ce f5bc e0c2 163b
000003c0: 211d 833c f2b1 abbc fdc6 d5bb b40d e33b
000003d0: 92dc 97bc 88bd 7ebc b682 2cbc 5c28 823c
000003e0: 4704 b33c 9e2d 363a c9de e1bb 9102 60bc
000003f0: 0b1f 3a3c 317e 2739 f874 a93c a0c4 b83b

fc1.bias f4 [128]
-0.008697343 0.0494658 0.007889818 0.016488442 0.071789406 -0.029126856 -0.0145194065 0.00933465
-0.009032514 0.037438866 0.010488367 0.03295891 0.007431531 0.009372756 0.034624305 -0.008413712
-0.005365144 -0.0004376458 0.004266257 -0.021757271 0.0414509 -0.005270522 0.00884359 0.02059939
0.010512253 -0.023430463 -0.006159069 0.042230826 0.01617629 -0.0057191756 -0.013994828 0.018975735
0.010336307 -0.0063387025 -0.024513578 0.024099773 0.02114215 0.01104216 0.007866908 0.05476784
-0.0046004187 -0.0006223402 0.011947126 -0.018122599 -0.010565874 -0.015033793 -0.010924966 -0.012806142
-0.0016849673 0.0023324587 0.0171325 -0.03240753 -0.025357608 0.0038649356 0.047406886 0.027512876
0.017961185 0.019652357 0.02171794 -0.0038638841 -0.004220456 -0.020041158 -0.02353099 0.006159983
-0.028173514 -0.00020392286 -0.0062425714 0.005648931 0.026027754 -0.028874155 0.019510556 0.026650341
0.04073213 -0.0011897568 -0.0013572631 -0.0062154722 -0.0009888054 0.014521924 0.013133304 -0.0004969215
0.00048172363 -0.016731756 0.001977124 0.018510059 -0.008704096 -0.00387462 0.013948873 -0.024336291
0.007059791 0.04191877 0.07949875 -0.0052012648 -0.0023366448 0.011585545 -0.01280933 0.02824472
-0.040843148 0.014480961 -0.015962977 0.01700318 0.014086644 -0.0110657085 -0.016674398 -0.020006543
0.016889134 -0.03668146 0.008920058 0.010661349 -0.014269684 0.06678496 -0.021738328 -0.0004820891
0.006234008 0.0254596 0.05169731 -0.019091846 0.012736028 0.007396542 -0.021718027 -0.021188602
-0.018000595 -0.030898942 -0.01442808 -0.019899564 -0.012197517 -0.025608016 0.012306961 -0.01682809
00000000: 4d7f 0ebc a79c 4a3d 4c44 013c c512 873c
00000010: 5306 933d 729b eebc cee2 6dbc 5cf0 183c
00000020: 1cfd 13bc 7f59 193d 66d7 2b3c ecff 063d
00000030: 3384 f33b 3090 193c 37d2 0d3d aad9 09bc
00000040: 17ce afbb d373 e5b9 f5cb 8b3b 4e3c b2bc
00000050: 6bc8 293d 58b4 acbb b4e4 103c 0dc0 a83c
00000060: 963b 2c3c 3ef1 bfbc 04d2 c9bb 3bfa 2c3d
00000070: 2484 843c ec67 bbbb 904a 65bc 0073 9b3c
00000080: 9d59 293c e4b4 cfbb b3d0 c8bc e36c c53c
00000090: 4d32 ad3c 2dea 343c 34e4 003c 3e54 603d
000000a0: 1cbf 96bb 8b24 23ba e1bd 433c d875 94bc
000000b0: 7d1c 2dbc 4c50 76bc a1fe 32bc dad0 51bc
000000c0: 1fda dcba 2adc 183b 7559 8c3c c2bd 04bd
000000d0: c2ba cfbc dc4a 7d3b b92d 423d af62 e13c
000000e0: 5623 933c fbfd a03c d2e9 b13c 3839 7dbb
000000f0: c04b 8abb 5b2d a4bc 10c4 c0bc afd9 c93b
00000100: 24cc e6bc 20d4 55b9 7c8e ccbb ab1a b93b
00000110: 2838 d53c 7e89 ecbc 9ad4 9f3c d151 da3c
00000120: bcd6 263d 9df1 9bba 31e6 b1ba 29ab cbbb
00000130: ce9a 81ba 5ded 6d3c 122d 573c d643 02ba
00000140: da8f fc39 0911 89bc a392 013b 68a2 973c
00000150: a09b 0ebc 56ed 7dbb d089 643c e75c c7bc
00000160: d255 e73b 04b3 2b3d 3ed0 a23d 5f6f aabb
00000170: 6522 19bb 4cd1 3d3c 39de 51bc 7961 e73c
00000180: 254b 27bd 8d41 6d3c cac4 82bc 414a 8b3c
00000190: abcb 663c f24c 35bc bf98 88bc c3e4 a3bc
000001a0: 155b 8a3c 4c3f 16bd 6f25 123c f0ac 2e3c
000001b0: 65cb 69bc 8ec6 883d 9414 b2bc e7c0 fcb9
000001c0: a646 cc3b a790 d03c 8fc0 533d 8166 9cbc
000001d0: c6aa 503c b15e f23b 01ea b1bc b893 adbc
000001e0: fc75 93bc c71f fdbc c163 6cbc 6904 a3bc
000001f0: 18d8 47bc e7c7 d1bc 23a3 493c 10db 89bc

fc2.weight f4 [6, 128]
-0.027030038 0.11599556 -0.079413235 0.09757326 -0.11439972 -0.019411752 0.031044912 0.16842645
-0.027176702 0.00014562433 0.09518474 0.11777153 0.0010442294 -0.112021655 0.098628916 -0.013476818
-0.04797205 -0.023991613 0.18630797 0.03503969 -0.059068017 -0.07716808 -0.028099457 -0.06109704
0.18735856 0.06429009 -0.040769618 -0.19754641 0.11024974 -0.038854837 -0.11532009 -0.13549554
0.12588926 -0.06835279 0.005047491 0.0030551734 0.11581883 -0.039380025 2.5614689e-05 -0.13714613
-0.1051986 -0.039590567 -0.088646196 0.08568801 0.01609629 -0.0796603 -0.011891249 -0.021387115
-0.012939554 0.098975375 -0.20491037 0.14418702 -0.08262504 -0.03248766 -0.07842806 -0.13716
-0.023256684 0.2040169 -0.032279193 0.26533633 -0.13722266 0.009386568 0.07108953 -0.16592245
-0.0392632 0.12839152 0.12629072 0.07040551 0.13937338 0.13466619 -0.14723746 0.044746704
0.13191378 -0.081857145 0.0021035022 -0.15404053 -0.021366037 -0.14722046 -0.046760257 -0.00056755793
0.05009229 0.006453957 0.1495553 -0.070987515 0.06331897 -0.008305774 0.27546144 -0.08925849
-0.0686008 -0.15018506 -0.1245286 0.029037163 0.08806021 0.085915655 0.1333034 -0.29740614
-0.057315923 0.022851113 0.08406925 -0.07948073 0.07379141 -0.027327571 -0.0883423 0.07863459
-0.0019237244 -0.073775716 -0.109745085 0.09019437 0.04817335 -0.027280815 -0.0111560235 -0.14429617
-0.11986565 -0.08654771 0.0582302 -0.05741114 -0.074468434 -0.07389294 -0.055653047 0.08335159
0.089698665 -0.015472577 -0.0019997868 -0.006814727 -0.017086836 0.04811738 0.040285625 -0.0059818677
-0.07291722 0.06783813 0.08555163 0.15956755 0.14018613 -0.082857005 -0.07699384 -0.09081105
-0.0063197697 0.072930425 0.024799285 -0.241464 0.05961693 -0.06671961 -0.057781145 -0.14420068
0.07923623 0.030472085 -0.05937481 0.06753102 0.031001862 0.03192711 -0.056055564 0.12621118
-0.111448504 -0.05282887 0.0007146839 0.026645368 0.07963224 -0.007487561 -0.026242996 0.07170619
0.031973157 -0.11722866 0.061040197 0.11708609 -0.17015703 -0.13936266 -0.050961882 0.055241637
-0.07265739 0.09723595 -0.23932177 0.053243164 -0.0131541835 -0.07809275 -0.03174449 0.058646798
0.033278577 0.003492964 -0.06475242 0.050370727 -0.061724532 -0.020832984 0.068547666 0.110921025
-0.04847992 -0.060283836 0.10459919 0.056480095 0.011169581 -0.003912887 -0.09485163 -0.021055745
0.046737395 0.107846856 -0.16704282 0.06767657 0.0020654702 -0.08140296 0.1639555 -0.057230454
0.002193299 -0.072434776 0.0419663 -0.22621559 -0.09675288 0.018058602 -0.03584487 0.12377594
-0.0422706 -0.04813593 -0.15810148 -0.11955189 0.04270509 0.017369464 0.22605719 -0.03662953
0.020598004 0.05019939 0.23191863 -0.09954581 0.0411199 -0.046981126 -0.09293042 0.006200634
0.06788294 -0.034499157 0.027214287 0.06449898 0.038689334 -0.052148663 0.081228755 -0.063086465
-0.018339053 -0.014213013 0.082128346 0.1758417 -0.06570837 0.21512412 0.06742745 -0.023185695
-0.05483479 0.10257145 0.16686699 0.06474706 0.02703362 -0.049979206 -0.06741082 0.054507993
-0.20962097 -0.063434154 0.032113537 0.11221819 0.090143204 -0.07296145 0.004817401 -0.095585264
00000000: 196e ddbc 158f ed3d 68a3 a2bd 7dd4 c73d
00000010: 674a eabd 6505 9fbc e651 fe3c fc77 2c3e
00000020: ada1 debc bcb2 1839 38f0 c23d 3332 f13d
00000030: 86de 883a 9c6b e5bd f5fd c93d dfcd 5cbc
00000040: 577e 44bd 0f8a c4bc 84c7 3e3e c785 0f3d
00000050: 4ef1 71bd 4c0a 9ebd d530 e6bc e440 7abd
00000060: ecda 3f3e 86aa 833d 0bfe 26bd 9b49 4abe
00000070: 9eca e13d 4026 1fbd f02c ecbd 58bf 0abe
00000080: 1de9 003e 8cfc 8bbd 6c65 a53b 4e39 483b
00000090: 6c32 ed3d f34c 21bd 20df d637 0970 0cbe
000000a0: 5d72 d7bd b829 22bd 238c b5bd 327d af3d
000000b0: 5edc 833c f024 a3bd 83d3 42bc 0834 afbc
000000c0: 6c00 54bc 9ab3 ca3d 06d4 51be c3a5 133e
000000d0: 5137 a9bd c811 05bd e49e a0bd ac73 0cbe
000000e0: cd84 bebc cee9 503e 3037 04bd 2ada 873e
000000f0: 1984 0cbe 1fca 193c 6397 913d 93e7 29be
00000100: 73d2 20bd 1179 033e 5b52 013e c430 903d
00000110: e5b7 0e3e efe5 093e 6bc5 16be 5248 373d
00000120: 6814 073e b8a4 a7bd e9da 093b cdbc 1dbe
00000130: d407 afbc f6c0 16be af87 3fbd 2bc8 14ba
00000140: 932d 4d3d b77b d33b 0625 193e e761 91bd
00000150: 60ad 813d f114 08bc 4809 8d3e 28cd b6bd
00000160: 947e 8cbd 1dca 19be da08 ffbd 58df ed3c
00000170: e958 b43d 8cf4 af3d b080 083e 9e45 98be
00000180: 1ac4 6abd 4232 bb3c 802c ac3d cbc6 a2bd
00000190: f31f 973d 12de dfbc cfec b4bd 2c0b a13d
000001a0: 7b25 fcba b917 97bd 08c2 e0bd d3b7 b83d
000001b0: 6b51 453d 047c dfbc c1c7 36bc 60c2 13be
000001c0: 1f7c f5bd ed3f b1bd ca82 6e3d f227 6bbd
000001d0: e882 98bd 2f55 97bd 73f4 63bd 3db4 aa3d
000001e0: efb3 b73d b180 7dbc db0e 03bb 134e dfbb
000001f0: b1f9 8bbc bb16 453d 8a02 253d 8b03 c4bb
00000200: a055 95bd b8ee 8a3d b135 af3d ad65 233e
00000210: f48c 0f3e efb0 a9bd f2ae 9dbd 25fb b9bd
00000220: 1216 cfbb 8c5c 953d df27 cb3c 5742 77be
00000230: e230 743d 4aa4 88bd ecab 6cbd 58a9 13be
00000240: 9b46 a23d 98a0 f93c 0033 73bd b44d 8a3d
00000250: 9ef7 fd3c 00c6 023d 859a 65bd 813d 013e
00000260: 1d3f e4bd 1663 58bd a059 3b3a 6347 da3c
00000270: 3a16 a33d 375a f5bb 8dfb d6bc b2da 923d
00000280: 49f6 023d 9415 f0bd 4905 7a3d d5ca ef3d
00000290: a53d 2ebe 16b5 0ebe 68bd 50bd 0e45 623d
000002a0: 66cd 94bd a423 c73d c410 75be 8115 5a3d
000002b0: a584 57bc 17ef 9fbd 8306 02bd a037 703d
000002c0: 1e4f 083d 36ea 643b eb9c 84bd 8951 4e3d
000002d0: ddd2 7cbd efa9 aabc b862 8c3d 902a e33d
000002e0: e192 46bd 2fec 76bd 1a38 d63d ac57 673d
000002f0: 9e00 373c ad37 80bb 9241 c2bd 197d acbc
00000300: b66f 3f3d d0de dc3d 460d 2bbe 039a 8a3d
00000310: d75c 073b 98b6 a6bd f3e3 273e 7b6a 6abd
00000320: 73bd 0f3b af58 94bd dbe4 2b3d 0fa5 67be
00000330: 6026 c6bd a2ef 933c 12d2 12bd 3d7e fd3d
00000340: f023 2dbd 2e2a 45bd 5be5 21be 9fd7 f4bd
00000350: 88eb 2e3d 684a 8e3c 897b 673e d908 16bd
00000360: 25bd a83c e09d 4d3d 147c 6d3e acde cbbd
00000370: 576d 283d 486f 40bd 4e52 bebd b02e cb3b
00000380: 3606 8b3d fd4e 0dbd 7ff0 de3c 0b18 843d
00000390: b578 1e3d d699 55bd 435b a63d 7a33 81bd
000003a0: c83b 96bc b3dd 68bc e832 a83d d90f 343e
000003b0: 1c92 86bd 7f49 5c3e 6717 8a3d edef bdbc
000003c0: 729a 60bd fb10 d23d 2edf 2a3e 1b9a 843d
000003d0: 9c75 dd3c ffb6 4cbd af0e 8abd c643 5f3d
000003e0: e1a6 56be c4e9 81bd 7c89 033d a7d2 e53d
000003f0: 009d b83d d06c 95bd 4adb 9d3b 35c2 c3bd

fc2.bias f4 [6]
0.04450961 0.04337767 0.020359786 0.1109514 -0.058277592 -0.20148693
00000000: b54f 363d c9ac 313d 91c9 a63c 7d3a e33d
00000010: 7cb4 6ebd 9752 4ebe
