classifier/models/blue_model.pth (torch_old, 489520 bytes, 8 tensors)

conv1.weight f4 [6, 3, 3, 3]
-0.18807927 -0.21203327 -0.15614706 0.047302343 -0.1360802 0.14355347 -0.01875423 0.055342842
-0.003928694 -0.49856597 -0.37954292 -0.3065485 -0.43962318 -0.34940183 -0.26900524 -0.13689144
-0.45169532 -0.22778727 -0.10611789 -0.016461266 -0.24511729 -0.10706825 -0.0058257557 -0.16802101
-0.32806677 -0.10073294 -0.078775816 0.074011944 0.28630581 -0.007409223 0.36170524 0.4217184
0.21684979 0.4766367 0.46969074 0.4501918 0.2475038 0.14479011 0.10263756 0.54316324
0.39075556 0.25533888 0.43843633 0.43877074 0.15668188 -0.17582083 0.060505807 -0.046160463
-0.06545507 0.4854245 0.19850174 0.004713083 0.18347883 0.12380538 -0.15370828 -0.18628623
-0.2890483 -0.06634825 -0.21017206 0.05629808 -0.17644966 -0.28321013 0.0906052 -0.40295917
-0.41680413 -0.18241633 -0.17697185 -0.44045255 -0.44791022 -0.10220613 -0.081948355 -0.31225786
-0.09887201 0.09820787 -0.1687492 -0.017559512 -0.21325558 -0.00860151 -0.2541876 -0.012181539
-0.20200099 0.2886238 0.22193308 0.24067505 0.49707147 0.59378546 0.27308506 0.18441194
0.15759182 0.15245113 0.113117054 0.46139526 0.4420049 0.48738062 0.4492376 0.51757884
0.23290986 0.3655868 0.35147628 -0.23409888 -0.25325125 -0.31662267 -0.31295285 0.057939343
-0.05271655 -0.38982368 -0.33388087 -0.033875663 -0.27650338 -0.29969233 -0.2881007 -0.25160664
0.18790966 0.09949927 0.15348974 0.28265098 0.083119005 -0.15023325 0.061839137 0.20199442
0.20712645 0.48381168 0.35070032 0.25636938 0.6617343 0.51804125 -0.07761757 -0.039130196
-0.08637418 0.14380828 0.37137815 0.25228614 0.24977368 0.3894112 0.44934735 -0.20825918
-0.1229661 0.17548215 -0.32797313 -0.0045767277 0.070390634 -0.34005293 0.028432213 -0.03976231
-0.1086874 0.05547138 0.24663565 0.2135951 0.0791608 0.31449553 -0.09419957 0.21399818
0.35003427 0.1575454 0.012077375 0.37250566 -0.19935983 -0.11645477 0.12810728 -0.024521273
0.24774519 0.32398626
00000000: da97 40be 401f 59be 04e5 1fbe 1ac0 413d
00000010: 9c58 0bbe aeff 123e 79a2 99bc 2daf 623d
00000020: 46bc 80bb 0a44 ffbe 7353 c2be edf3 9cbe
00000030: 4a16 e1be cce4 b2be 0ebb 89be 452d 0cbe
00000040: 9c44 e7be 1141 69be 5654 d9bd c7d9 86bc
00000050: 0700 7bbe 9946 dbbd fbe5 bebb b30d 2cbe
00000060: 5ef8 a7be 124d cebd 3755 a1bd 9393 973d
00000070: ad96 923e 11c9 f2bb 6e31 b93e 79eb d73e
00000080: df0d 5e3e ba09 f43e 4e7b f03e 8a7f e63e
00000090: a371 7d3e dc43 143e a433 d23d bf0c 0b3f
000000a0: 1d11 c83e c7bb 823e ba7a e03e 8fa6 e03e
000000b0: 3771 203e 600a 34be f0d4 773d c112 3dbd
000000c0: 4f0d 86bd 8f89 f83e 0a44 4b3e 3570 9a3b
000000d0: e0e1 3b3e ad8d fd3d b465 1dbe d1c1 3ebe
000000e0: 24fe 93be 97e1 87bd 5837 57be d198 663d
000000f0: 38af 34be eb00 91be 388f b93d aa50 cebe
00000100: 5a67 d5be 59cb 3abe 1c38 35be ff82 e1be
00000110: 7d54 e5be 7351 d1bd 8ad4 a7bd 43e0 9fbe
00000120: 697d cabd 3521 c93d 97cc 2cbe f7d8 8fbc
00000130: ac5f 5abe 59ed 0cbc e124 82be 1495 47bc
00000140: 59d9 4ebe 80c6 933e 6d42 633e 8573 763e
00000150: 2780 fe3e 5302 183f ced1 8b3e 7cd6 3c3e
00000160: c05f 213e 261c 1c3e eaa9 e73d 003c ec3e
00000170: 774e e23e f489 f93e 7902 e63e 0c80 043f
00000180: ec7f 6e3e 312e bb3e b3f4 b33e 9eb7 6fbe
00000190: 26aa 81be 5e1c a2be 5b3b a0be ce51 6d3d
000001a0: 4fed 57bd f896 c7be 6ff2 aabe 35c1 0abd
000001b0: da91 8dbe 4671 99be ef81 93be 96d2 80be
000001c0: 646b 403e 46c6 cb3d 6a2c 1d3e a1b7 903e
000001d0: 4c3a aa3d bfd6 19be 094b 7d3d a0d7 4e3e
000001e0: f518 543e 2ab6 f73e fe8e b33e d942 833e
000001f0: 6b67 293f 5a9e 043f f6f5 9ebd fc46 20bd
00000200: f2e4 b0bd 7a42 133e 4725 be3e a62b 813e
00000210: acc4 7f3e e860 c73e db10 e63e e541 55be
00000220: a7d5 fbbd 98b1 333e 18ec a7be 60f8 95bb
00000230: f728 903d 6b1b aebe acea e83c cedd 22bd
00000240: 8097 debd f535 633d 0e8e 7c3e adb8 5a3e
00000250: 0f1f a23d 8f05 a13e b4eb c0bd 5722 5b3e
00000260: b137 b33e 9553 213e 2fe0 453c 10b9 be3e
00000270: fc24 4cbe d77f eebd 8e2e 033e d6e0 c8bc
00000280: eab0 7d3e 87e1 a53e

conv1.bias f4 [6]
-0.23311508 0.68204916 -0.23809043 0.437746 0.31520694 0.4577146
00000000: b8b5 6ebe c69a 2e3f facd 73be 3e20 e03e
00000010: ce62 a13e 9159 ea3e

conv2.weight f4 [12, 6, 3, 3]
0.20735668 0.20991215 0.24029788 0.18033175 0.29487723 0.24250731 0.069738515 0.3751594
0.21139973 -0.09899065 -0.0259558 0.035586506 0.0660469 -0.18229121 -0.10129371 -0.17567736
-0.18194732 0.00627637 0.18881777 0.25156268 0.16891024 0.2931439 0.1930287 0.0134621
0.21936192 0.33936492 0.12331011 -0.3148431 -0.44461903 -0.306313 -0.17778 -0.21963093
-0.24956812 -0.3345399 -0.2571758 0.057182033 -0.17256634 -0.09726244 0.0027930439 -0.10151794
-0.2751951 -0.118371576 -0.06696425 -0.1915827 -0.1344175 -0.09650608 -0.05256025 0.09384038
-0.18840773 0.01709962 -0.049072847 -0.26080975 -0.034159068 -0.024534317 -0.19177915 -0.022095876
-0.17297217 -0.059162825 -0.014264278 0.047619432 -0.18497297 -0.050887533 0.093306996 -0.029935382
-0.0004422302 -0.10433664 0.3207206 0.05203138 -0.19072741 0.25341198 0.2639051 0.070691414
-0.11359078 -0.1289772 -0.1633176 -0.18750204 0.09055323 0.081066206 -0.055923484 -0.011578357
-0.04430291 0.14551842 0.06028735 -0.15723477 0.32131296 -0.042569365 -0.20489861 0.2476419
0.12072998 0.06415959 -0.0385407 -0.09205001 -0.012288742 0.25161016 -0.021988401 -0.08923248
0.18721391 0.018177984 0.17236227 -0.11850492 -0.17253003 -0.07147948 -0.00892002 -0.1728513
-0.13708301 0.07239641 -0.019430688 -0.11501697 -0.14949417 0.01713059 -0.17252491 -0.12158165
0.06398769 0.020720534 0.06649956 -0.11024632 0.01761 0.07670365 -0.06880031 0.2333199
-0.12775484 -0.029513841 -0.15558831 0.095809236 -0.16403127 -0.0061064805 -0.14821735 -0.13474576
-0.20273851 0.0040319227 -0.16368328 -0.11439875 -0.2034955 0.08484064 -0.0180231 0.0021701122
0.05898429 0.18427779 0.14907037 0.03175442 -0.049576398 0.16322689 0.14558232 -0.0014434507
-0.013641516 -0.009342522 0.18479207 -0.09550707 -0.027256837 -0.02103456 0.08083501 -0.12954071
0.1299413 -0.099608004 0.030108992 -0.051633235 0.09756976 -0.029367972 0.07694911 0.032723382
0.1420029 0.18917377 0.064556316 -0.018741395 -0.023025462 -0.060508054 -0.09580133 -0.16501504
-0.014051241 -0.08120682 -0.100104265 -0.20332167 0.045362346 -0.15288685 0.044900186 0.1422733
-0.053079113 -0.17485428 -0.18179943 0.00020942575 0.16336815 -0.038405206 0.032466996 0.08660914
-0.10628167 -0.026933847 -0.06367491 -0.075546056 0.034001958 -0.16792354 -0.23434947 -0.057721045
0.15619168 0.022374539 -0.034361973 0.0757089 0.053049788 -0.10168587 0.023503577 0.0543194
0.2287143 0.31919917 0.2859179 -0.03407843 -0.19670601 -0.10689122 0.045792356 0.20346613
-0.018297099 0.27600303 0.16612424 -0.031724323 0.048095863 0.09660209 0.16222425 -0.0075007523
-0.05288494 0.01738997 0.089940496 0.038919434 0.10000597 -0.07492207 -0.05861483 -0.16287227
0.01307381 -0.028796723 -0.1194286 -0.109010816 0.026673796 -0.052165415 -0.15826648 0.11516626
0.1097107 -0.20500523 0.03393218 0.05861134 0.14802365 -0.10155856 0.010047506 0.11914789
-0.13205405 -0.30381456 -0.07156364 0.27602744 0.23580837 -0.14067085 0.2707142 0.2059099
-0.09527909 0.4248236 0.3356423 0.017335221 0.04785863 -0.13504237 -0.092192225 -0.119211555
00000000: 4f55 543e 36f3 563e a610 763e e3a8 383e
00000010: 26fa 963e d653 783e 11d3 8e3d e514 c03e
00000020: 2c79 583e 9cbb cabd 42a1 d4bc 28c3 113d
00000030: 9943 873d 8caa 3abe 1473 cfbd c4e4 33be
00000040: 6650 3abe 02aa cd3b 7259 413e d3cc 803e
00000050: cef6 2c3e f516 963e 51a9 453e 2490 5c3c
00000060: 69a0 603e 3dc1 ad3e 038a fc3d 1d33 a1be
00000070: 1ba5 e3be 0fd5 9cbe f60b 36be eee6 60be
00000080: c98e 7fbe d048 abbe 8cac 83be b537 6a3d
00000090: 3bb5 30be 8831 c7bd 800b 373b a3e8 cfbd
000000a0: 5fe6 8cbe cc6c f2bd 8d24 89bd 412e 44be
000000b0: bea4 09be fba4 c5bd 6b49 57bd 632f c03d
000000c0: f5ed 40be 8114 8c3c 9c00 49bd db88 85be
000000d0: 61ea 0bbd 31fc c8bc c161 44be 6902 b5bc
000000e0: 9e1f 31be b854 72bd b8b4 69bc 980c 433d
000000f0: 8e69 3dbe 726f 50bd bd17 bf3d 0c3b f5bc
00000100: 22db e7b9 73ae d5bd 7e35 a43e db1e 553d
00000110: 0c4e 43be 37bf 813e 921e 873e a9c6 903d
00000120: 48a2 e8bd 9912 04be bb3c 27be 8900 40be
00000130: f973 b93d 0a06 a63d 0610 65bd 26b3 3dbc
00000140: f876 35bd c802 153e deef 763d 2702 21be
00000150: 2283 a43e 375d 2ebd f1d0 51be d795 7d3e
00000160: 4841 f73d 1a66 833d dadc 1dbd b784 bcbd
00000170: b856 49bc 0cd3 803e 0521 b4bc 85bf b6bd
00000180: 01b5 3f3e ffe9 943c bc7f 303e b5b2 f2bd
00000190: b6ab 30be d563 92bd 4725 12bc eeff 30be
000001a0: 7d5f 0cbe 9244 943d 1b2d 9fbc 048e ebbd
000001b0: 0015 19be 7355 8c3c 5faa 30be cdff f8bd
000001c0: fa0b 833d 1cbe a93c ec30 883d d3c8 e1bd
000001d0: d942 903c ce16 9d3d 2de7 8cbd 69eb 6e3e
000001e0: 2ad2 02be 03c7 f1bc 8b52 1fbe a237 c43d
000001f0: d0f7 27be df18 c8bb 4ac6 17be cbfa 09be
00000200: af9a 4fbe 381e 843b 979c 27be e449 eabd
00000210: 2061 50be eec0 ad3d 2ea5 93bc 7138 0e3b
00000220: 8399 713d 51b3 3c3e e7a5 183e ec10 023d
00000230: 9f10 4bbd f324 273e 8813 153e 2b32 bdba
00000240: aa80 5fbc 6111 19bc 223a 3d3e 3699 c3bd
00000250: bb49 dfbc ab50 acbc d38c a53d 52a6 04be
00000260: 550f 053e 48ff cbbd 22a7 f63c 5f7d 53bd
00000270: a8d2 c73d 1a95 f0bc 7f97 9d3d f408 063d
00000280: 3569 113e c5b6 413e 1a36 843d 8e87 99bc
00000290: e59f bcbc 4bd7 77bd 7d33 c4bd b4f9 28be
000002a0: 2d37 66bc c34f a6bd 7703 cdbd 8e33 50be
000002b0: decd 393d 5f8e 1cbe 42e9 373d 18b0 113e
000002c0: 7c69 59bd 000d 33be a129 3abe 4c99 5b39
000002d0: fb49 273e c74e 1dbd 1dfc 043d 2260 b13d
000002e0: 34aa d9bd 5fa4 dcbc fe67 82bd e4b7 9abd
000002f0: a345 0b3d 26f4 2bbe 4ff9 6fbe e76c 6cbd
00000300: b6f0 1f3e cf4a b73c 24bf 0cbd 450d 9b3d
00000310: bc4a 593d ae40 d0bd 938a c03c 057e 5e3d
00000320: 1534 6a3e 136e a33e d563 923e d395 0bbd
00000330: 4d6d 49be c9e9 dabd c490 3b3d 6d59 503e
00000340: cce3 95bc 4550 8d3e 791c 2a3e 5df1 01bd
00000350: 2b00 453d 51d7 c53d 1d1e 263e dfc8 f5bb
00000360: e19d 58bd 6975 8e3c b932 b83d fc69 1f3d
00000370: eecf cc3d be70 99bd 1b16 70bd fdc7 26be
00000380: 8933 563c 1be7 ebbc fb96 f4bd 1041 dfbd
00000390: 0183 da3c 67ab 55bd 9c10 22be 4adc eb3d
000003a0: 01b0 e03d e4ec 51be 78fc 0a3d 7212 703d
000003b0: 8393 173e effd cfbd 4b9e 243c cf03 f43d
000003c0: 2d39 07be 958d 9bbe f58f 92bd 7853 8d3e
000003d0: c077 713e 050c 10be 0d9b 8a3e 0bda 523e
000003e0: af21 c3bd 7b82 d93e 4fd9 ab3e 9802 8e3c
000003f0: 6907 443d 8c48 0abe 47cf bcbd 3025 f4bd

conv2.bias f4 [12]
0.050009154 -0.020419626 -0.07589218 0.118267365 -0.16609359 0.05709577 0.08227138 -0.09418915
0.057569735 -0.061231025 -0.26605225 -0.00614614
00000000: 66d6 4c3d 0f47 a7bc 5c6d 9bbd 2936 f23d
00000010: 7014 2abe 41dd 693d e67d a83d 3ee6 c0bd
00000020: 3ece 6b3d 62cd 7abd 0038 88be 8f65 c9bb

fc1.weight f4 [128, 936]
-0.05786282 0.020702684 0.025027119 0.026740946 -0.0073431786 -0.053320646 -0.04285293 0.081466846
0.17138492 0.0747864 0.040594887 -0.05843565 -0.066986315 0.016040983 0.11728595 0.03600691
0.00953288 -0.017339148 -0.054717887 -0.02631961 0.039069984 0.034096383 0.0019513738 -0.062237237
-0.07007131 -0.043709777 0.0030480907 0.006977675 0.02875321 -0.041565605 -0.0013720294 0.006051357
0.026479144 0.087941945 0.039515715 -0.021013582 -0.019394685 -0.0445315 0.030061867 -0.0046114107
-0.049855012 -0.070599936 -0.009228923 -0.09454523 0.03098454 0.012155316 -0.040642943 -0.060061704
-0.020700566 0.016031694 0.03739437 -0.011707092 -0.010795053 -0.00165136 -0.036614493 0.06436362
0.07235583 0.041735064 0.065910354 0.006193159 0.017265817 0.049056645 -0.00057663023 0.0057140053
0.0008111183 0.018438164 0.0036229189 0.03531819 0.029210152 -0.010190028 -0.017724762 0.008149038
0.014139101 -0.029063774 0.0577442 0.055427387 0.026834881 -0.038227513 0.010234625 -0.02489649
-0.045686 -0.015916683 0.006073181 -0.02117541 0.031097988 0.015770344 -0.026631763 -0.063298345
-0.051432166 0.008926959 0.017956108 -0.030804912 -0.01446992 0.01763766 -0.012822922 -0.019852264
0.033688154 -0.042786412 0.034228817 -0.014848828 -0.0066224057 -0.009758877 0.038804904 -1.5182588e-05
0.030427491 -0.007000987 -0.044580106 -0.00292254 0.05559597 -0.018932234 -0.0069396864 -0.009352537
-0.037950218 -0.016928172 0.03378499 -0.016752664 -0.010706784 -0.0068531195 -0.059032973 -0.026689727
0.01804657 0.025072455 0.014519904 -0.043000694 -0.04413472 -0.0193275 0.027850429 0.011177033
-0.025434367 -0.013861802 0.003321052 -0.012728447 0.029286422 0.02939506 0.02166607 0.002478197
-0.045080062 -0.031617958 0.041450545 0.03365478 0.0022739924 0.041330263 0.036314808 0.0035121886
0.015585442 -0.009525278 0.06845989 0.028728463 0.033030532 -0.009578299 0.02829153 -0.014828102
0.03480778 0.030285198 0.013311778 0.00639154 -0.00060295453 0.024953075 0.035123415 -0.001897643
-0.017168986 -0.018633457 0.026618667 -0.048484467 -0.050264068 -0.0003595256 0.036605872 0.0043495684
0.024333686 -0.014615157 -0.0038027551 -0.04303162 -0.016428743 -0.0012117933 -0.0069845617 0.026108094
0.00244632 -0.020655895 0.025532212 0.022359265 -0.015712103 0.0032402663 0.039890334 0.029972909
-0.013371807 0.015258765 0.022807125 -0.040682655 -0.037783895 -0.011484931 -0.04476444 -0.0046483413
0.01885719 -0.019066421 -0.018457921 -0.024465503 0.021906931 -0.0013224655 0.044140648 -0.0119330445
-0.030285727 -0.010135722 -0.0039791367 0.025018482 -0.0072488957 0.01992172 -0.018532414 0.034131907
-0.014101756 -0.022921408 0.032114323 0.027029267 -0.036126602 0.0086249765 0.0016752834 -0.013173014
-0.014991445 0.024483204 0.0029271415 0.009898218 0.022883419 0.033756208 -0.00936869 -0.036312535
0.024039214 -0.022351952 0.011333095 0.021840362 0.0035440777 -0.0025601024 0.019152174 -0.016641617
0.033091247 -0.005515805 -0.033791397 -0.004216214 0.017527787 -0.03480294 0.006348692 -0.020319019
-0.013872845 0.013770318 -0.025277495 -0.0064678737 0.017931998 0.032898176 -0.012618623 0.017889204
0.016996361 0.00014851929 0.00829247 -0.022385903 0.016012348 -0.004137834 -0.04753048 0.026354954
00000000: 9001 6dbd ad98 a93c ac05 cd3c d40f db3c
00000010: 0c9f f0bb c066 5abd 8e86 2fbd 17d8 a63d
00000020: 877f 2f3e 9d29 993d d346 263d 385a 6fbd
00000030: 1f30 89bd 6168 833c 9e33 f03d fb7b 133d
00000040: cc2f 1c3c d40a 8ebc dd1f 60bd 399c d7bc
00000050: d907 203d a6a8 0b3d 3dc5 ff3a 79ec 7ebd
00000060: 8c81 8fbd 0609 33bd 7ac2 473b fba4 e43b
00000070: da8b eb3c b240 2abd abd5 b3ba 764a c63b
00000080: caea d83c e81a b43d 3bdb 213d ad24 acbc
00000090: 9ae1 9ebc aa66 36bd 4e44 f63c 511b 97bb
000000a0: c534 4cbd b396 90bd e934 17bc eea0 c1bd
000000b0: 4ad3 fd3c 1727 473c 3779 26bd 4303 76bd
000000c0: 3c94 a9bc e654 833c d72a 193d 1acf 3fbc
000000d0: bcdd 30bc 7272 d8ba 14f9 15bd 13d1 833d
000000e0: 4b2f 943d 63f2 2a3d 02fc 863d fcef ca3b
000000f0: 0b71 8d3c 9fef 483d 0029 17ba 8d3c bb3b
00000100: 3aa1 543a a20b 973c 7e6e 6d3b cea9 103d
00000110: 214a ef3c 13f4 26bc 8533 91bc 8b83 053c
00000120: b0a7 673c 2717 eebc 2f85 6c3d d407 633d
00000130: d3d4 db3c 7494 1cbd 21af 273c b9f3 cbbc
00000140: 3e21 3bbd b463 82bc 8901 c73b 0e78 adbc
00000150: 35c1 fe3c cf30 813c db2a dabc 90a2 81bd
00000160: 89aa 52bd 6142 123c b018 933c 955a fcbc
00000170: 3e13 6dbc db7c 903c 3c17 52bc 37a1 a2bc
00000180: 97fc 093d ce40 2fbd 8433 0c3d 8048 73bc
00000190: c400 d9bb b2e3 1fbc e4f1 1e3d b8b8 7eb7
000001a0: 1343 f93c 8968 e5bb a199 36bd 1688 3fbb
000001b0: 9ab8 633d c617 9bbc 4f66 e3bb 623b 19bc
000001c0: b071 1bbd f3ac 8abc 2162 0a3d e23c 89bc
000001d0: 826b 2fbc 2290 e0bb 8fcc 71bd 6aa4 dabc
000001e0: 66d6 933c c064 cd3c e4e4 6d3c 7f21 30bd
000001f0: 9cc6 34bd b554 9ebc 9526 e43c e01f 373c
00000200: bc5b d0bc 9d1c 63bc 02a6 593b fa8a 50bc
00000210: 14ea ef3c e9cd f03c 0b7d b13c 3f69 223b
00000220: dfa5 38bd d581 01bd 0cc8 293d 98d9 093d
00000230: 4307 153b ec49 293d d6be 143d bf2c 663b
00000240: 155a 7f3c e90f 1cbc b334 8c3d f457 eb3c
00000250: 064b 073d 4cee 1cbc a4c3 e73c 91f1 72bc
00000260: 9a92 0e3d aa18 f83c a519 5a3c 2070 d13b
00000270: 980f 1eba 646a cc3c 92dd 0f3d 55ba f8ba
00000280: f9a5 8cbc 31a5 98bc 640f da3c a697 46bd
00000290: b2e1 4dbd b67e bcb9 0af0 153d d386 8e3b
000002a0: 7057 c73c 6974 6fbc a537 79bb ed41 30bd
000002b0: 9295 86bc 09d5 9eba c0de e4bb a4e0 d53c
000002c0: 7052 203b 8d36 a9bc ee28 d13c c72a b73c
000002d0: abb6 80bc a65a 543b 0c64 233d bf89 f53c
000002e0: 6c15 5bbc e6ff 793c 02d6 ba3c dba2 26bd
000002f0: 49c3 1abd 4b2b 3cbc eb5a 37bd 1d51 98bb
00000300: 657a 9a3c 2f31 9cbc 1135 97bc e16b c8bc
00000310: 2a76 b33c 9456 adba d3cc 343d d182 43bc
00000320: c619 f8bc 4d10 26bc 6b63 82bb 8ff3 cc3c
00000330: 2588 edbb e032 a33c 4ad1 97bc e6cd 0b3d
00000340: 0d0b 67bc adc5 bbbc 4f8a 033d 7b6c dd3c
00000350: 7df9 13bd c64f 0d3c 2f95 db3a a0d3 57bc
00000360: ad9e 75bc 0091 c83c 49d5 3f3b 232c 223c
00000370: 0276 bb3c f343 0a3d 227f 19bc 74bc 14bd
00000380: e3ed c43c 711b b7bc 72ae 393c 8fea b23c
00000390: c243 683b 64c7 27bb 05e5 9c3c 0054 88bc
000003a0: b08a 073d edbd b4bb d968 0abd 2b28 8abb
000003b0: 6f96 8f3c 878d 0ebd b008 d03b 1274 a6bc
000003c0: ee4a 63bc e69c 613c c012 cfbc 75f0 d3bb
000003d0: 20e6 923c 3dc0 063d 57be 4ebc 618c 923c
000003e0: f43b 8b3c d8bb 1b39 24dd 073c a462 b7bc
000003f0: 542c 833c ab96 87bb 52af 42bd 58e6 d73c

fc1.bias f4 [128]
0.04488518 0.049329624 0.023363233 0.0040022386 0.03160272 -0.012477198 -0.016681554 0.03753284
-0.019217527 -0.036305763 -0.0016129508 0.008445483 0.031915363 0.01329287 -0.01727085 -0.0147343995
0.026719067 -0.025029106 -0.029067978 0.013564405 -0.032853283 -0.034025796 -0.03211869 -0.029360075
-0.017268129 0.0024228455 0.02375146 -0.029176485 -0.020102976 -0.03143947 -0.018740172 0.03279301
0.034223784 0.022531101 -0.035921242 0.007741336 0.007684673 -0.023288254 -0.015963007 0.009025306
-0.012945831 -0.0153198205 0.032052718 0.014067996 -0.02618123 0.0559639 -0.0026376573 -0.009043407
0.0043122037 0.032383744 0.008434518 0.03434095 0.004719783 0.024916142 0.014650596 0.028272146
-0.015320211 -0.043966655 0.044364043 -0.025652518 0.012242835 -0.028637651 -0.0053738733 0.0090368
0.0005350566 0.042237412 0.0124775395 -0.019488035 0.029053032 0.030428687 0.028545432 -0.0043556043
0.014896278 0.013599627 0.02649568 0.0005117181 -0.0041355924 -0.02186161 0.0250361 -0.04670768
-0.014934924 -0.020390818 -0.008827744 0.0066788653 0.019788345 -0.0101820715 0.029936252 -0.015508827
0.019447101 0.029789334 0.004914379 -0.01690557 -0.019421011 -0.02305352 -0.021376094 -0.020803094
-0.022052512 0.016144155 -0.038131144 0.002444531 0.0060671554 0.019624114 -0.02725406 -0.034887575
0.010898543 0.03315261 0.0071347146 -0.028446672 0.005626381 0.0112098595 0.031080225 0.022014529
0.012945961 -0.0030307842 0.0051119863 0.020269759 -0.027216109 0.025733976 0.03029438 -0.0101880925
0.02618561 -0.037578013 0.012398207 -0.022581816 -0.0044326186 0.0119630275 0.016362775 -0.021098206
00000000: 86d9 373d dc0d 4a3d 4064 bf3c 3625 833b
00000010: db71 013d 296d 4cbc c1a7 88bc 09bc 193d
00000020: 136e 9dbc 5ab5 14bd a669 d3ba ec5e 0a3c
00000030: afb9 023d 56ca 593c 997b 8dbc 8d68 71bc
00000040: f2e1 da3c d709 cdbc f81f eebc 3d3d 5e3c
00000050: 2a91 06bd a25e 0bbd e38e 03bd 8a84 f0bc
00000060: e475 8dbc 9ac8 1e3b 6c92 c23c 8603 efbc
00000070: ffae a4bc acc6 00bd fd84 99bc f751 063d
00000080: 3d2e 0c3d 2593 b83c 2722 13bd 08ab fd3b
00000090: b6cf fb3b 02c7 bebc dac4 82bc e1de 133c
000000a0: c01a 54bc fcff 7abc b649 033d 747d 663c
000000b0: 057a d6bc 673a 653d 8cdc 2cbb cc2a 14bc
000000c0: 634d 8d3b d1a4 043d ef30 0a3c 19a9 0c3d
000000d0: 69a8 9a3b f01c cc3c 0e09 703c fd9a e73c
000000e0: 9f01 7bbc 6116 34bd 12b7 353d 3b25 d2bc
000000f0: 2c96 483c 8299 eabc 5117 b0bb 160f 143c
00000100: 0a43 0c3a 2301 2d3d 986e 4c3c 5fa5 9fbc
00000110: a000 ee3c 9545 f93c 1cd8 e93c 75b9 8ebb
00000120: 850f 743c f8d0 5e3c 780d d93c d224 063a
00000130: dd83 87bb 1e17 b3bc 8218 cd3c 8d50 3fbd
00000140: 9db1 74bc a50a a7bc 3ea2 10bc 62da da3b
00000150: 2b1b a23c b4d2 26bc df3c f53c bc18 7ebc
00000160: 874f 9f3c c308 f43c cd08 a13b 8d7d 8abc
00000170: d018 9fbc bcda bcbc eb1c afbc 406b aabc
00000180: 78a7 b4bc bf40 843c 672f 1cbd 6d34 203b
00000190: fdce c63b c0c2 a03c e843 dfbc 46e6 0ebd
000001a0: cd8f 323c 08cb 073d 53ca e93b ff08 e9bc
000001b0: 815d b83b 8fa9 373c f59b fe3c d057 b43c
000001c0: 4c1b 543c 1fa0 46bb 7382 a73b c40c a63c
000001d0: 51f4 debc 0fd0 d23c eb2b f83c f5eb 26bc
000001e0: 3483 d63c 67eb 19bd d921 4b3c 80fd b8bc
000001f0: 803f 91bb 9300 443c 3a0b 863c 25d6 acbc

fc2.weight f4 [10, 128]
0.2933662 -0.12424751 -0.13408521 -0.16958901 0.054474525 0.064043425 -0.06261588 -0.087166235
-0.035156522 0.087968364 0.06075283 -0.26426408 -0.11705614 0.0358985 -0.31058237 0.03810161
-0.20522648 0.039458215 -0.0050094607 -0.062670544 0.034200944 0.063598484 0.016130771 -0.03393484
-0.16024654 -0.32024303 -0.39352685 -0.16868038 0.08416336 0.046111237 0.0606489 0.31757104
0.01480029 -0.10622606 0.021758597 -0.055891536 -0.014837774 -0.21041507 -0.16903445 0.026302572
-0.20751178 -0.067891784 0.18440193 0.25524327 0.020674614 0.16267338 -0.07258563 0.032548815
-0.053892903 -0.3187717 0.040780395 0.018752603 -0.045216143 -0.0405236 0.17247398 0.08301878
-0.036740884 -0.092412755 0.15675835 -0.26196843 0.33399522 -0.06474759 -0.09638826 -0.02944952
0.16864246 -0.13299672 0.057866905 0.15835841 0.11234115 0.023013387 -0.061980776 -0.01120872
0.003939457 0.06584988 -0.12456263 0.008763944 0.113915876 0.03747519 0.125722 -0.3806613
-0.17225194 -0.2175123 0.032349497 -0.069292285 0.16924956 -0.019564236 -0.022219202 -0.023876775
0.0021206432 0.1965145 -0.033727635 -0.08883759 0.03921054 -0.051535998 -0.11607208 -0.08237293
-0.052958306 0.19753481 -0.023707459 -0.15237072 0.03432173 0.056280483 -0.056428783 0.07613614
-0.044906255 -0.092375524 0.38690686 0.07902628 -0.02968891 -0.03314559 0.26280022 -0.17696835
0.16089568 -0.14387433 0.012881476 0.06832603 0.06820744 0.056394838 -0.042816285 0.3116152
-0.029495876 0.006656413 -0.15438177 -0.26955962 -0.09944016 -0.034811255 -0.13288106 0.050218068
-0.2035136 -0.12510686 0.14992695 -0.07897278 -0.120924145 0.0083523 -0.021011326 -0.26707813
0.019103082 0.23038526 -0.08672871 0.06288774 -0.015653687 -0.09752938 -0.079013586 -0.032963287
-0.017066358 -0.07907922 0.0029327902 0.092486344 0.13821423 -0.044770684 -0.05315492 0.036669873
0.15823252 0.11223263 0.23241378 -0.08766022 -0.049831506 -0.067307144 -0.08516704 0.07373268
0.17061827 0.15659644 -0.075370915 0.16258752 0.12683366 0.19733098 0.17143588 -0.0028997245
0.20458627 -0.11966928 -0.2572028 -0.18113838 -0.16411312 0.2559112 -0.0016105704 -0.018995598
0.03690458 0.252631 0.06154175 0.04342787 0.012362487 0.082472965 -0.0052377954 0.07006798
-0.0027810454 -0.24549475 0.20317417 0.2688301 -0.2846928 0.103303865 0.07314517 -0.16843186
-0.084109165 0.14599013 -0.16689032 0.07893672 -0.13980976 0.056446932 -0.016695479 -0.0570372
-0.0823802 -0.26780024 -0.07967892 0.18105648 0.05268848 -0.092001006 -0.019724598 0.083738826
-0.08653779 0.06694912 -0.05062206 -0.09396516 -0.20281994 0.06577691 0.06164895 -0.071434915
0.13406064 0.10322832 0.043567635 -0.28805605 -0.072653554 -0.04681169 -0.024095919 -0.18911414
0.01477959 0.16282807 0.10634093 0.23041004 -0.07408568 0.17774382 -0.016411012 -0.08906394
-0.09500894 0.0026765112 0.025159525 -0.01394064 0.02725157 -0.040336184 -0.12951002 0.03900417
-0.06851861 -0.10480154 0.017177507 -0.121923625 0.08648207 -0.11460404 -0.13799419 -0.18969041
0.044632584 0.12819962 -0.10301685 -0.08719421 -0.24211268 0.010068909 0.27608564 -0.13866766
00000000: 1834 963e 7b75 febd a24d 09be bea8 2dbe
00000010: ae20 5f3d 3329 833d c13c 80bd 3684 b2bd
00000020: 4900 10bd c228 b43d f6d7 783d 9f4d 87be
00000030: 21bb efbd 4e0a 133d a704 9fbe 6f10 1c3d
00000040: e426 52be f09e 213d 6726 a4bb 6a59 80bd
00000050: 4a16 0c3d ec3f 823d ae24 843c 42ff 0abd
00000060: ab17 24be e5f6 a3be 5a7c c9be 8dba 2cbe
00000070: d75d ac3d 23df 3c3d fb6a 783d ac98 a23e
00000080: ea7c 723c 0c8d d9bd 163f b23c 86ee 64bd
00000090: 231a 73bc 0c77 57be 5e17 2dbe 7e78 d73c
000000a0: f87d 54be d90a 8bbd dcd3 3c3e 3faf 823e
000000b0: cf5d a93c da93 263e c6a7 94bd e851 053d
000000c0: cebe 5cbd 0b36 a3be 5809 273d 0f9f 993c
000000d0: 9034 39bd 13fc 25bd 059d 303e c005 aa3d
000000e0: 9c7d 16bd e642 bdbd 4385 203e ba20 86be
000000f0: 6c01 ab3e 629a 84bd 3567 c5bd 1f40 f1bc
00000100: 9cb0 2c3e 4b30 08be d905 6d3d b528 223e
00000110: 1e13 e63d 9286 bc3c 8edf 7dbd c7a4 37bc
00000120: 8f16 813b 4ddc 863d b11a ffbd a596 0f3c
00000130: ba4c e93d 967f 193d 45bd 003e 0ae6 c2be
00000140: d062 30be 8bbb 5ebe e880 043d 1de9 8dbd
00000150: c24f 2d3e 2d45 a0bc 0b05 b6bc 3a99 c3bc
00000160: 7dfa 0a3b 193b 493e fd25 0abd 7bf0 b5bd
00000170: 3b9b 203d 6917 53bd 33b7 edbd 24b3 a8bd
00000180: cfea 58bd 9146 4a3e 2536 c2bc 1207 1cbe
00000190: f194 0c3d 5d86 663d de21 67bd 44ed 9b3d
000001a0: 9fef 37bd 612f bdbd a818 c63e 88d8 a13d
000001b0: 2836 f3bc acc3 07bd c08d 863e 3137 35be
000001c0: d6c1 243e cb53 13be d40c 533c 85ee 8b3d
000001d0: 58b0 8b3d 46fe 663d 2160 2fbd 078c 9f3e
000001e0: 56a1 f1bc 0a1e da3b 4116 1ebe b803 8abe
000001f0: 48a7 cbbd 3f96 0ebd f911 08be 76b1 4d3d
00000200: df65 50be 031c 00be 7386 193e 7bbc a1bd
00000210: 14a7 f7bd 16d8 083c f21f acbc 77be 88be
00000220: 117e 9c3c 1dea 6b3e d29e b1bd 4acb 803d
00000230: 293c 80bc 7cbd c7bd e0d1 a1bd 8304 07bd
00000240: bfce 8bbc 49f4 a1bd 0e34 403b 7b69 bd3d
00000250: 0888 0d3e 7761 37bd f9b8 59bd 2633 163d
00000260: b507 223e 39da e53d e1fd 6d3e 3487 b3bd
00000270: 1f1c 4cbd 54d8 89bd 0f6c aebd 2901 973d
00000280: 8eb6 2e3e d15a 203e 115c 9abd 587d 263e
00000290: afe0 013e 2211 4a3e e38c 2f3e 4e09 3ebb
000002a0: 107f 513e 2b15 f5bd 16b0 83be 577c 39be
000002b0: 450d 28be cb06 833e c619 d3ba a89c 9bbc
000002c0: 4229 173d da58 813e 3413 7c3d 6ce1 313d
000002d0: 078c 4a3c 96e7 a83d d0a1 abbb cd7f 8f3d
000002e0: 3342 36bb fa62 7bbe e40c 503e 19a4 893e
000002f0: 41c3 91be fa90 d33d 23cd 953d 6779 2cbe
00000300: 6d41 acbd 707e 153e 4ce5 2abe 93a9 a13d
00000310: 4a2a 0fbe e634 673d f5c4 88bc d79f 69bd
00000320: f3b6 a8bd 1d1d 89be b42e a3bd df66 393e
00000330: e0cf 573d 066b bcbd 7b95 a1bc 437f ab3d
00000340: ba3a b1bd 9f1c 893d 1459 4fbd ce70 c0bd
00000350: 08b0 4fbe 0bb6 863d 9c83 7c3d 784c 92bd
00000360: 3147 093e 5f69 d33d fa73 323d 157c 93be
00000370: 63cb 94bd 9dbd 3fbd ce64 c5bc 23a7 41be
00000380: 1826 723c 67bc 263e 46c9 d93d 9cf0 6b3e
00000390: 3cba 97bd 7a02 363e 6370 86bc 2867 b6bd
000003a0: 0c94 c2bd 6868 2f3b 591b ce3c 4867 64bc
000003b0: af3e df3c 8e37 25bd 469e 04be d6c2 1f3d
000003c0: 7c53 8cbd 31a2 d6bd d8b7 8c3c 18b3 f9bd
000003d0: 831d b13d 86b5 eabd 594e 0dbe 343e 42be
000003e0: a8d0 363d c346 033e 80fa d2bd e192 b2bd
000003f0: 63ec 77be 11f8 243c 195b 8d3e e5fe 0dbe

fc2.bias f4 [10]
0.039553933 -0.0267658 0.06637178 0.06679039 0.1330404 0.0020140228 -0.10917444 0.07940927
-0.16019833 -0.10138011
00000000: 4e03 223d f343 dbbc eeed 873d 66c9 883d
00000010: be3b 083e b2fd 033b d996 dfbd 54a1 a23d
00000020: 080b 24be 60a0 cfbd
