classifier/models/refferi_model.pth (torch_old, 626116 bytes, 6 tensors)

conv1.weight f4 [6, 3, 3, 3]
00000000: 61be f6bc e628 103b 4f11 08be 64c8 55be
00000010: 3998 22be 27cf 77bd 7f97 0fbe e1be 5abe
00000020: 5ef3 963d 3081 50be 1c2c 57be 2f76 d63c
00000030: 4aa0 8abd 315f 23be 97b5 31bd 1078 46be
00000040: a22c 37be c05a a0bd 9cc7 253d 1555 353d
00000050: 0802 7a3d 0a6b 96bd 2cfb 263e 752e 25be
00000060: c134 b2bd 9169 52bd 890a 283e 22a7 023e
00000070: 7717 f8ba ba85 c0bd 6960 0d3e e2e4 05be
00000080: 1b91 e43d 3041 aabd 10e1 9ebd aee8 e2bd
00000090: 1acb 1fbd 0518 33bd 6833 003e 857d 3e3e
000000a0: f430 b7bd 01d3 513e 1f92 2c3c ea3c 29be
000000b0: b131 463e f79c f73d 6336 e2bd a8df 9fbd
000000c0: 1e5e 343e 947f a23d 1982 de3d 2582 cd3d
000000d0: 9089 223e 7ba2 8fbc 3369 41be 104a 053c
000000e0: 6e7e 6ebd 651a 623d 99c0 0abd c8b9 16be
000000f0: 130b 4dbd 21f7 83bd 435b 9a3d b5d2 3e3e
00000100: 7db5 1fbe 26f7 fdbc ee0b 03bd 34b6 413e
00000110: 6e58 1d3d 2d27 0cbe 3eeb a03c 1c1f 8ebc
00000120: 7558 40be c303 c9bd 2e49 403c 20e9 70be
00000130: 5eb5 d1bd 6a35 2abe c0c0 86bd a327 46be
00000140: 1052 603c 0d5f a73d 03fb 35bc c208 923c
00000150: ac47 b33d 5331 e83d 08ef d43c ad59 5e3e
00000160: dcf1 623e 8e80 12be 460b 723e fc08 4d3e
00000170: cb38 6a3e b124 8cbd e457 85bd 5db6 e43d
00000180: 1fbe 453e 3eb2 553e dec4 bb3d f59e 433e
00000190: f160 153e 091d 123e 7ff9 6e3d 4015 72bb
000001a0: 5bf6 03bd 9b51 55bd 1cf0 333e 4054 683c
000001b0: eeaf 343d 8eab 17be 5b9b ff3d 5069 8a3d
000001c0: 8368 59be 2db2 3fbe e146 06be 1fd6 853d
000001d0: ef6c 27be cef9 c9bd 903c 4bbd 67de 2b3e
000001e0: adee 4bbd e6e1 babd 1ab8 193e 25e7 d43c
000001f0: 5523 c33b 6275 81bd 52eb 283e 4237 a13d
00000200: 2400 473e ab38 b73d b175 13be 1885 0cbd
00000210: 63a0 123e 110b 7e3d 572a 473d 84d3 ec3d
00000220: 2181 1cbe 1a4a fbbd a702 e3bd 6030 35bb
00000230: eca5 e13c 3047 0cbc a7f0 b2bd ceb7 cb3d
00000240: d180 9d3c 9360 833c d8f2 d6bb 05b7 013e
00000250: 1651 293e ab5d 00be 2613 a6bc 9aa4 ea3d
00000260: 367f b93d ff5e febb 2ee1 b33d 5533 54bd
00000270: bd97 bb3d 4e13 21bd 768f 2dbc ec53 f13d
00000280: 4164 9dbb 1ff3 3c3e
-0.030120077 0.0021997034 -0.13287853 -0.20877224 -0.15878381 -0.06050029 -0.14022635 -0.21361877
0.07370637 -0.20361781 -0.2101292 0.026179401 -0.06768854 -0.15954281 -0.04338607 -0.19381738
-0.1788812 -0.07829809 0.040473565 0.044270594 0.061037093 -0.07344635 0.16306752 -0.16131003
-0.08701468 -0.051370207 0.16410269 0.12759069 -0.0018927892 -0.09400506 0.13806309 -0.13075593
0.11160489 -0.08313215 -0.07757771 -0.110795364 -0.039012052 -0.04372408 0.1251961 0.1860257
-0.08944884 0.20490648 0.010532885 -0.16527143 0.19354893 0.120904855 -0.1104553 -0.07806331
0.17614028 0.0793449 0.10864658 0.10034589 0.15872788 -0.017533531 -0.18887787 0.008135334
-0.05822604 0.055200953 -0.03387508 -0.14719307 -0.05005939 -0.064436205 0.07536938 0.18635066
-0.15596576 -0.031001639 -0.0319938 0.18917161 0.03841441 -0.1368682 0.019643422 -0.017348818
-0.18783744 -0.098151706 0.011736197 -0.2352643 -0.10239671 -0.16621938 -0.06579733 -0.19351058
0.01369144 0.081724264 -0.011107209 0.017826442 0.08753905 0.11337533 0.025992885 0.21713896
0.22162575 -0.14306852 0.23637113 0.20022959 0.22873227 -0.06842936 -0.065109044 0.111675955
0.19310807 0.20868775 0.09168409 0.19103606 0.14587761 0.14268889 0.058343407 -0.0036938936
-0.032217365 -0.05207978 0.17572063 0.014180243 0.044113092 -0.14811537 0.124808036 0.06758368
-0.21231274 -0.18720312 -0.13112976 0.06534981 -0.16350149 -0.098620996 -0.049618304 0.16784059
-0.049788166 -0.09125118 0.15011635 0.025989125 0.0059551396 -0.06321217 0.16496018 0.07871868
0.19433647 0.089463554 -0.14400364 -0.034306616 0.14318995 0.062022272 0.048624363 0.11563781
-0.15283634 -0.12269993 -0.1108449 -0.0027647242 0.027544938 -0.008561894 -0.08737307 0.09947167
0.019226464 0.016037261 -0.006559711 0.12667473 0.16534838 -0.12535731 -0.020272803 0.114571765
0.09057467 -0.0077627893 0.08783184 -0.051806767 0.09159801 -0.03932505 -0.010593286 0.11783585
-0.004803211 0.18452118

conv1.bias f4 [6]
00000000: 1ff5 e6bd e48f f23d c890 703e 51b5 b43d
00000010: 4afd 843e e56b 1bbe
-0.11277222 0.11843851 0.2349273 0.08823646 0.25974494 -0.15177877

fc1.weight f4 [64, 2436]
00000000: 9e15 cbbb b960 323c 8626 8e3c f5c0 f0ba
00000010: 644b 08bc 4f21 93bc 177f 57bb 6de6 2a3c
00000020: d693 87bc b5bc 9a3c ca9a a8bc 7145 7abc
00000030: e270 43bc 21bb e83a fb13 113c 0b3b 32bb
00000040: d722 9b3b 9aa3 bbbb 36bc 21bc 6036 afbb
00000050: fe77 a9bc 5e20 1c3b 2a4d c53b a0e3 71bc
00000060: 6222 a0bc 3a9e 8fbc b4f5 81bc 0396 75bc
00000070: a503 4fbb ac8b 2039 95eb bf3a 0a16 703c
00000080: 084e 91bc 8e96 3cbc f327 9cbc 1d30 e03b
00000090: 0720 ca3b 3d7e 853c 749f 443c 0636 87bb
000000a0: 1697 7a3b fee0 7abc c77b 49bc b681 06bc
000000b0: 1947 7c3c 36bf 90bb 1549 9bbc 7697 9abc
000000c0: b462 a3bc 9753 9a3c e21c 443c c0a7 81bc
000000d0: 5e98 62bc b529 413c d88e 913c 4448 a1bb
000000e0: c7e3 10bc 80cb 5c3c 08fa 653c 7c98 7d3c
000000f0: cdee 2e3c 0460 79bc e928 a4bc 66cb dfbb
00000100: 5135 003b e50b 333c 76f4 c33b 6781 83bb
00000110: 8158 703b 6a8e 8cbc a55b 8fbc 6036 7f3b
00000120: 8a17 603c 6e93 823c cd73 d0b9 4cde 09bc
00000130: e912 40bc 08f0 813b 0746 c2bb 5ceb d43b
00000140: 514c 873c 8b62 f63b 09af e53a 49a9 8b3b
00000150: 88e8 a8bc 19c4 4a3c 16a9 c43b 24d9 5339
00000160: 3e29 d13b ebd8 d23b ef0b 7fbc 6bd8 3b3c
00000170: 8970 263a 1c87 3e3c ba9b 133b a764 183c
00000180: af06 c63a 75df ab3b d1ae 833c 717d e4bb
00000190: d4e8 87bb 16bb b03b 2e3c 22bc bf3e 243c
000001a0: 765f 09bc 14ed 94bb ed3d 583c c638 3f3c
000001b0: ebe1 c63b 2126 8f3a 0298 2bb8 173a 463c
000001c0: 2356 93bb c413 97bc 393a de3b 2178 8dbb
000001d0: 4594 00bb 47d5 073b 60a0 72bc 94b5 7e3c
000001e0: 72ce 8c3b 0f88 90bb 3303 1d3c 8bb9 4b3c
000001f0: 84a0 0e3c a1ea d43a 6e4d 713c fe50 573a
00000200: 994f 503c 0c46 353c 7847 fcb9 ed47 8ebc
00000210: 5204 83bc d22e 7b3c 8d9b 9a3b cfb1 6dbc
00000220: 6a8b 9dbb 8bd7 78bc d1bb 99bb bb5e 47bc
00000230: 7c0a f5bb 31e1 26bc 8a0f 6bbb 1bab 153c
00000240: e60e 8abc 9382 ff3b 00c8 8b3c 193f 283c
00000250: 093f 15bc ef34 4f3c 724f 9d3c 25c6 4d3b
00000260: 02ca 503b bf38 fab9 d140 433c 0d94 b23b
00000270: 3927 96bc f47c c63a 8a6f 3abc 0ae3 bbbb
00000280: 3f75 8bbc 0480 75bc 752e 713b f8d2 89bc
00000290: 1515 833c 3e55 1e3c 343c 7d3c 93fc 843c
000002a0: fc8b b23b 4747 5c3a 4670 63bc 08fe 95bc
000002b0: b6f3 3a3c f98c 2ebc a729 abba 4a4d 0abc
000002c0: 613b 86ba 03f7 603c e7aa 2ebc a51e 96bc
000002d0: 11e1 9ebc 4e62 853c 6245 423c af4f 4abc
000002e0: e87b 8fbc 5358 26bc d28b 40bb ea35 803c
000002f0: b4b9 17bc d275 bb3b 5df5 8ebc 08b7 3fbc
00000300: 680d 47bc 54e7 51bc 8eb5 2dbc f15a 5ebc
00000310: cf7c 773b d51d 20bc 4932 1b3b 5d1c 5f3c
00000320: 9b5d 253c 56c5 8dbc 8121 70bc 510d 59bc
00000330: 922d a23c d120 833c 5d05 613c d84a 55bc
00000340: 0cd8 4c3c 93f7 013b ac90 eeba 6e7c a63b
00000350: a940 8f3c b106 383c 4fc6 febb 3ae5 a9bc
00000360: c6bf 75bc 624d e4bb 3668 913c 7cc9 183c
00000370: 0591 b0b9 44c1 c93b 4bc1 14bb bd51 8dbc
00000380: 5260 9ebc 5edd 693c ec9b ecb9 5c5b 5b3c
00000390: 8c52 2f3c a8ae 963c 3c7d 0a3c 5e3e eb3b
000003a0: e90a 813c 7ae3 933c ad32 95bc 458f 1a3c
000003b0: 2596 833c 44cc a6bc 298e 72bb d1e4 213a
000003c0: 6873 8bbb 6353 12bb 00ca 5a3c 80b1 ecbb
000003d0: f222 ab3b f011 03bb 86b0 a3b9 5c9d 3cbc
000003e0: c6e7 a6bc 1888 9ebb 1fee 703c df31 fd3b
000003f0: cc70 893c 5271 313a ff70 8e3c 198d b8ba
-0.0061976453 0.010887318 0.017352354 -0.0018368053 -0.008318756 -0.017960219 -0.0032882148 0.010430914
-0.016549986 0.01888881 -0.020581622 -0.015275345 -0.011928769 0.0017755964 0.008854861 -0.0027195837
0.004734378 -0.00572629 -0.009871533 -0.005347058 -0.0206871 0.0023823003 0.0060211616 -0.014763743
-0.019547645 -0.017531503 -0.01586423 -0.014989379 -0.0031587866 0.00015310821 0.0014642352 0.014653692
-0.017737404 -0.011510504 -0.019062018 0.006841673 0.0061683687 0.016295547 0.012000907 -0.004126313
0.0038237027 -0.015312431 -0.012297577 -0.008209636 0.01539781 -0.0044173254 -0.018955747 -0.01887105
-0.019944526 0.018838687 0.011969777 -0.01582706 -0.0138302725 0.011789729 0.017768309 -0.004921945
-0.008843369 0.013476253 0.014036663 0.01547825 0.010677052 -0.015220646 -0.020039039 -0.006829667
0.001956303 0.010928129 0.0059800697 -0.0040132287 0.0036673846 -0.017157752 -0.017499754 0.0038942322
0.013677487 0.01593944 -0.0003975913 -0.008414816 -0.0117232585 0.0039653815 -0.005928758 0.0064977836
0.016515883 0.0075190715 0.0017523478 0.0042621237 -0.020618692 0.012375855 0.006001602 0.00020203419
0.0063830903 0.00643455 -0.01556681 0.011465172 0.00063491665 0.011628892 0.002252324 0.009301341
0.0015108193 0.005245144 0.01607457 -0.0069729616 -0.0041476283 0.005393396 -0.009902043 0.010024725
-0.008384576 -0.0045448635 0.013198358 0.011671251 0.006069412 0.0010921397 -4.0911145e-05 0.012098811
-0.0044963523 -0.018442042 0.006781843 -0.004317299 -0.0019619626 0.0020726488 -0.014808744 0.015546221
0.004297071 -0.0044107507 0.009583282 0.012434374 0.008705262 0.0016244241 0.014727933 0.0008213668
0.01271429 0.011064064 -0.00048118434 -0.017368281 -0.015993271 0.015330987 0.00471825 -0.014507725
-0.004807879 -0.015188108 -0.004691579 -0.012168582 -0.0074780565 -0.010185526 -0.0035867416 0.009135033
-0.016852807 0.007797548 0.01706314 0.01026895 -0.009109267 0.012646898 0.019202922 0.003139862
0.0031858687 -0.00047725995 0.011917309 0.005449778 -0.01832925 0.001514344 -0.011379132 -0.0057338523
-0.01702368 -0.014984135 0.0036801372 -0.01682423 0.016001264 0.009663878 0.015456248 0.016233718
0.0054488163 0.0008402955 -0.013881749 -0.018309608 0.011410644 -0.010653728 -0.0013058678 -0.008441279
-0.0010241085 0.013730767 -0.0106608635 -0.01832516 -0.01939443 0.016282227 0.011857362 -0.0123481
-0.017515138 -0.010152894 -0.0029380214 0.015650708 -0.009260584 0.0057208324 -0.017450983 -0.011701353
-0.012149192 -0.012811501 -0.010602368 -0.013571487 0.00377636 -0.0097727375 0.0023681095 0.013617602
0.010093118 -0.017306011 -0.014656425 -0.013247804 0.01979712 0.016006859 0.013734189 -0.013018332
0.012502681 0.0019831404 -0.0018201075 0.005080751 0.017486887 0.011232064 -0.007775105 -0.020739187
-0.014999336 -0.0069672326 0.017749887 0.009325381 -0.00033677384 0.0061570723 -0.002269822 -0.01725089
-0.019333038 0.014273969 -0.000451296 0.013388481 0.010700833 0.01839383 0.00845271 0.0071790656
0.015752273 0.018052805 -0.01821264 0.009433572 0.016062805 -0.020361073 -0.0037011004 0.0006175759
-0.004255701 -0.0022327534 0.013353825 -0.007223308 0.0052226717 -0.0019999705 -0.00031221303 -0.011512127
-0.02037419 -0.004838001 0.01470521 0.0077268924 0.016777419 0.00067689 0.017387865 -0.0014080136

fc1.bias f4 [64]
00000000: 89b0 e6bb b169 1a3c a19a 013c de98 df3c
00000010: afa4 a8bc 3a29 ef3c d7e9 583c e007 2c3c
00000020: 2722 2abc 500d acbb f12d 8dbc fd13 b43c
00000030: 2e83 613c fb00 97bb c4c4 10bc 1a50 5cbc
00000040: 5bf5 4db9 98cd 0c3c e80d 81bc 8c71 983c
00000050: 81fa 923a 8335 e23b e1d8 df3b 8e37 7c3c
00000060: c41c 643c e1c7 84bb e63e 833c f945 6cbc
00000070: ef4e ea3b 9cab 383c 7d43 85bc caa7 eabb
00000080: 9ad6 3ebc cece 1b3c bd08 24bc 2a2f d63b
00000090: f0e4 233b 7a95 61bc b07c 923c bfbe aabb
000000a0: 2c47 a4bc ae7a 90bc 56e4 dabb b2c1 fbbb
000000b0: 92cf fc3b 74b7 19bb 485e 1b3c b85c 123c
000000c0: 9929 30bc 1eab 25bc 3c48 f8bb a0d1 50bc
000000d0: fd4f ac3c a936 fd3b 5f84 423c 4ac5 a13c
000000e0: 600e 1bbc ae22 9a3a 514a 183c 491f e43b
000000f0: beec 9f3b cbc1 993c 0211 8e3b f5e4 81bb
-0.0070400876 0.009424613 0.007910402 0.027294572 -0.02058634 0.029194463 0.0132393455 0.010499924
-0.010384119 -0.0052506104 -0.01723382 0.021982187 0.013764186 -0.004608271 -0.008835975 -0.013446832
-0.00019641726 0.008593939 -0.015753701 0.01860883 0.0011213572 0.0069033518 0.006831274 0.015394105
0.013922874 -0.0040521477 0.016021203 -0.01442098 0.007150523 0.011271384 -0.016267532 -0.0071611153
-0.011647845 0.009509755 -0.010011849 0.006536384 0.0025008284 -0.013768548 0.017881721 -0.005210727
-0.020053469 -0.017636623 -0.006680052 -0.0076830024 0.007715174 -0.0023455294 0.009482928 0.008933239
-0.010752105 -0.010111598 -0.0075769704 -0.012745291 0.021034235 0.0077274633 0.01187238 0.019747395
-0.0094638765 0.0011759603 0.009295062 0.0069617373 0.004880517 0.018769166 0.0043355236 -0.0039640614

fc2.weight f4 [2, 64]
00000000: 2104 9d3c 5c1d 3dbd e849 e7bc 209a d73d
00000010: faa7 f53d 8e55 d83d 46dc 34be b6b1 a63d
00000020: ec66 fe3c 54db 77bd 8b64 9e3d ce85 cf3d
00000030: 7793 4abc a76f bebd ade0 bebd 923c 4dbd
00000040: e2aa c8bd 7bdf 90bd f76a 1cbe dfc0 50bc
00000050: 8680 9ebb a06a 2dbd 769d c1bd 2c30 78bc
00000060: 07d8 f33d f340 e23d 8a54 263e ed21 77bd
00000070: d458 d03d 499a 8a3d f5b7 2f3d ea97 8d3d
00000080: b8d9 c33d c36c d9bc ec14 bd3d c6f7 0b3e
00000090: 3683 c7bd 99db 1fbd a854 0e3e 5fbf ae3d
000000a0: 630f dc3d 5f3b f83b c04f c8bd 4d92 15be
000000b0: 7267 f5bd 0aa3 aabc 313e b63d 4a07 17be
000000c0: a36a 82be e7e6 f0bd 9a31 543d 30f6 2abd
000000d0: 750d ec3d d4be 093b 79e4 07be 5972 42bd
000000e0: 1ea7 f73c 3967 c83c e0d3 febb cdcb b6bd
000000f0: 8734 9d3d dee4 0d3d 9db8 9fbd 2ea4 8bbc
00000100: e592 613c 2a48 10be 1cad 10be 9734 30be
00000110: 568f eebd 9ac5 cdbd 1605 4c3e 0b15 133b
00000120: 0846 b9bd fd82 c0bd d91d 61bd 9411 aaba
00000130: ec18 d1bd c834 a73d 3f55 f43d b06e ab3b
00000140: f3e7 f6bc 49de efbd b071 6b3c f341 05bd
00000150: 2ebc 313d ab58 afbd c9d6 e13d 3482 51bd
00000160: 7993 e7bd 6ccf 9bbd 23a8 00be be60 e03b
00000170: 8a88 4f3c 7fa0 e23d c0e5 db3d 7ea4 613c
00000180: 6811 e63d 97ed ea3d ef0e df3d b760 10be
00000190: 2e7a e9bd ff76 7cbd 3c4e 13be d945 aa3d
000001a0: c4c6 dfbc 4e04 87bd b4b6 fbbd 01d8 553e
000001b0: 3781 f1bd 0200 573d 8270 2cbe 4311 fb3d
000001c0: 37f9 7c3e 0880 d5bc 9014 e53d 5e4e a4bd
000001d0: 84bf 03bd 261d 57bc be63 f33d 180e 6c3d
000001e0: 3e2b 56bd efc2 2ebd fcde c23a 86f8 0b3e
000001f0: a53e 64bd f0ca e13d e34e 8f3d a228 07be
0.019167008 -0.046170577 -0.028233483 0.10527444 0.119949296 0.10563193 -0.17662153 0.081393644
0.031054936 -0.060511902 0.07734021 0.10132943 -0.01236426 -0.0929864 -0.09320197 -0.050106592
-0.09798218 -0.070738755 -0.15275179 -0.012741297 -0.0048370985 -0.042338014 -0.094538614 -0.015148204
0.11906438 0.11047544 0.16243187 -0.06033509 0.101731926 0.06767709 0.042900044 0.06913741
0.09563011 -0.02654112 0.09232506 0.13668737 -0.097418234 -0.039027784 0.13899481 0.08532595
0.10745122 0.007575437 -0.09780836 -0.1460659 -0.11982621 -0.020829696 0.08898581 -0.14748874
-0.25471982 -0.11762791 0.051805116 -0.04173869 0.11526004 0.0021018283 -0.13270749 -0.04747233
0.030231055 0.024463283 -0.0077767223 -0.08925591 0.076760344 0.034642093 -0.07798884 -0.01704606
0.013767933 -0.14090028 -0.14128536 -0.17207561 -0.11648433 -0.10047455 0.19923815 0.0022442963
-0.090465605 -0.09399984 -0.054960106 -0.0012975209 -0.102098316 0.08164364 0.11930322 0.005231701
-0.030139899 -0.117123194 0.014370367 -0.032533597 0.043392353 -0.08561834 0.11027295 -0.051149562
-0.11307425 -0.07607922 -0.12564139 0.00684747 0.012666831 0.110657685 0.10737181 0.013772128
0.11233789 0.11471098 0.1089152 -0.14099394 -0.11400257 -0.06163692 -0.14385313 0.08314104
-0.027316459 -0.06592618 -0.12290707 0.2088318 -0.11792224 0.05249024 -0.16839793 0.12259152
0.24704443 -0.026062027 0.111855626 -0.0802276 -0.032165065 -0.013129508 0.11884259 0.05763063
-0.052287333 -0.042666372 0.001486748 0.13669023 -0.055723805 0.110250354 0.06997468 -0.13199094

fc2.bias f4 [2]
00000000: 1517 6a3d 724b 58bd
0.05715092 -0.052806325
