classifier/models/refferi_model.pth (torch_old, 104405 bytes, 8 tensors)

conv1.weight f4 [6, 3, 3, 3]
000000 21 b6 44 3e 40 17 0a 3e 94 7b 1c 3e 6d 64 a2 bd
       0.19210102 0.13485432 0.15281516 -0.07929311
000010 50 8c a3 3d a0 a7 41 3e 09 28 57 3e 1e f7 40 3e
       0.07985747 0.189116 0.21011366 0.18844268
000020 88 ab 2c 3e 84 7e b5 3d eb 46 09 3e 38 aa 38 3d
       0.16862309 0.088620216 0.1340596 0.04508421
000030 be be 0d bd a1 f8 6a 3e d3 68 07 be 7a c6 73 3e
       -0.034605734 0.22946407 -0.13223581 0.23806182
000040 03 e2 1f 3e b9 93 b2 3c df 42 36 3e 0f d1 03 be
       0.1561356 0.021798955 0.17798947 -0.12872718
000050 e5 9e 99 3d f6 52 c1 3d 88 a6 09 bd 1e b1 14 3d
       0.0750101 0.09439652 -0.033606082 0.036301725
000060 17 2b 3e 3c 42 a2 b7 bd 4f 99 25 3e fc 2f ce 3d
       0.011606953 -0.08966495 0.16171764 0.10067746
000070 78 90 83 3d 09 26 e7 bc 5c ba 2c 3e 40 27 1d be
       0.064240396 -0.028216379 0.16867965 -0.15347004
000080 62 fe 21 3e 7f e4 3d be 14 1c 07 3e 23 29 2c be
       0.15819696 -0.18544196 0.13194305 -0.16812567
000090 67 0c 37 be d2 fa 18 3d 64 3a 20 be 06 65 e9 bd
       -0.17875825 0.037348576 -0.15647274 -0.11396222
0000a0 c6 5f 06 3e 63 16 2e be 12 72 15 3e 91 e1 2a bc
       0.13122472 -0.17000727 0.14594296 -0.010429756
0000b0 bb 64 f1 3d da 42 c8 bd ab b9 b8 bd dc 6d 8c 3d
       0.11786791 -0.09778376 -0.09019788 0.068568915
0000c0 be 4d 86 bd aa 92 e9 bb 73 b0 3b 3c 8c cf 7f 3d
       -0.06557797 -0.0071280794 0.011455643 0.06245379
0000d0 65 ab 29 3d 9b 8b b6 3c 3c 06 05 be 84 99 c0 3d
       0.04142322 0.022283366 -0.1299066 0.09404281
0000e0 ae 93 b6 3d 4f ec 00 3e 62 af 1f 3e 65 22 8b 3d
       0.089148864 0.12590145 0.15594247 0.067936696
0000f0 ff 05 81 ba ca f0 0a be fb 78 40 3e a2 d5 15 be
       -0.0009843706 -0.13568416 0.1879615 -0.14632276
000100 27 82 0e be 2b 1a 45 3e 6f a6 7a bd bc dd 81 3d
       -0.13916837 0.19248264 -0.06119388 0.063411206
000110 96 f4 d3 3a e3 7a 6b 3c b9 4a 58 bb bb a3 d4 3d
       0.0016170915 0.01437256 -0.0033003523 0.103827916
000120 0b ef cb bc f8 9c 8a 3c 4a ce 12 be 98 56 5a be
       -0.024894258 0.016920552 -0.14336506 -0.21322095
000130 e0 ad 06 be ce 56 4d be 95 8f 86 bd ba cb 15 be
       -0.13152266 -0.20052645 -0.06570355 -0.14628497
000140 a0 31 ed 3d 98 e4 4d bd 87 7f c2 3d 5a 3b 61 3d
       0.11581731 -0.050266832 0.0949698 0.054988243
000150 ca 38 0b be 9e e2 18 be fd 1a 38 be 1d 7d 38 be
       -0.13595882 -0.14930198 -0.17979045 -0.18016477
000160 42 5a a3 bd a9 9c c4 bd 8b 98 9a 3d d9 0a 0a 3d
       -0.079762 -0.09600193 0.075486265 0.03370175
000170 9e a3 e2 3d da ec ee 3c 1a e2 0c bd c6 dc b2 bd
       0.11066364 0.029165674 -0.034395315 -0.087335154
000180 63 2f f9 3d db 05 17 bd 24 0f 0b be 6e 9b 31 bd
       0.121672414 -0.03687082 -0.13579994 -0.04336112
000190 49 31 b9 bc 4b ae 0d 3e 0d e3 a0 3c d4 aa 30 bb
       -0.022606509 0.13836019 0.019639516 -0.002695729
0001a0 75 a5 45 bc 9b 2d 70 3c 1d 9b 7e 3d 0c a9 a8 bd
       -0.012063374 0.014659311 0.062159646 -0.08235368
0001b0 4d d6 91 bd 6b d5 07 be f3 b2 ca 3d 95 19 80 3d
       -0.07120953 -0.13265006 0.09897413 0.062548794
0001c0 26 45 2b 3e 6f 28 29 3d 1a ac 16 3e e7 b2 26 be
       0.16725597 0.041298326 0.14714089 -0.16279183
0001d0 6a 83 19 be 68 01 8c 3d ca 2c b5 3d b5 4b 1a 3d
       -0.14991537 0.06836206 0.088464335 0.037669856
0001e0 30 15 05 3e 24 e8 07 3d c1 74 13 3e 55 2f fa bd
       0.12996364 0.03318037 0.14400007 -0.12216059
0001f0 10 47 eb 3d 21 f5 e4 3c 13 a7 16 be 67 d1 34 be
       0.114881635 0.027948918 -0.14712171 -0.17658006
000200 b1 9e 21 be 51 3f 27 be cd 9b 6f be a2 df 09 be
       -0.15783192 -0.16332747 -0.23399277 -0.13464215
000210 52 2c 12 be 2f b7 81 3d 16 dd 06 3c aa a2 97 bd
       -0.1427472 0.063337676 0.008231422 -0.074040726
000220 9d d5 86 bc 31 46 0b be 85 f3 bb bd 9b 6f 09 be
       -0.01645928 -0.13600995 -0.09177307 -0.1342148
000230 c8 06 b2 bd cc fb 0f 3e e1 8b 30 be 82 ef fa 3d
       -0.086927 0.14060897 -0.1724086 0.12252714
000240 31 c6 fe 3d 1f 3b 47 bd fb 67 95 bd c1 22 54 bd
       0.12440146 -0.048640367 -0.07295223 -0.051790956
000250 c5 ad 1f bd 61 b4 66 3c 46 84 2a be 7c 29 ec 39
       -0.03898408 0.014081092 -0.16652021 0.00045044336
000260 b6 4e 9f bd af e3 e8 bd 25 d8 87 bd d5 97 d3 3d
       -0.07778685 -0.11371552 -0.06633023 0.10331694
000270 7c 13 76 bd 75 6d ca bd da f0 1f be 1b 23 51 3e
       -0.060077175 -0.098841585 -0.15619221 0.20423548
000280 a4 ca 0d 3e f5 96 6c 3d
       0.13846833 0.05776115

conv1.bias f4 [6]
000000 52 2e 64 bd a7 eb 04 be 20 e0 c0 3b 42 f8 26 be
       -0.055708237 -0.12980519 0.005886093 -0.1630564
000010 c5 10 2c 3e 00 62 d6 3d
       0.16803272 0.10467911

conv2.weight f4 [10, 6, 3, 3]
000000 c7 71 4f 3d 3d 69 92 3d e2 0e 04 3d 14 ee c3 bb
       0.050645616 0.07148979 0.032240756 -0.005979309
000010 1c 62 92 bd 16 5d e3 3c d9 6e e3 3b 04 8b 71 bd
       -0.07147619 0.027754348 0.0069407043 -0.058970466
000020 94 3f 00 be 32 f1 d8 bd aa c4 05 3d 1f 51 0f 3c
       -0.12524253 -0.10592879 0.032658257 0.008747368
000030 1b 90 d0 bd 32 1d cb 3d 7e cc 85 bd b8 ee 02 3e
       -0.10183736 0.09917678 -0.065331444 0.12786376
000040 e0 3f a6 3d 36 58 a8 3d d8 d7 72 bc c2 fe 00 be
       0.08117652 0.0821995 -0.014821969 -0.12597182
000050 e3 cb 04 be 0d d8 00 3e 1c 21 86 3c c8 f6 5b bd
       -0.12968402 0.12582417 0.01637321 -0.053702146
000060 c9 e4 ae 3d 53 a4 86 bd 47 3b bd bd 0a 3c a8 3d
       0.08539731 -0.06574311 -0.09239822 0.082145765
000070 3d 23 16 3d ec 88 c9 bd f9 c9 92 bd 9f 1c c6 bd
       0.0366547 -0.09840569 -0.071674295 -0.09673428
000080 ba a3 22 3d b4 8a f8 bd 8e d9 a1 bb 3d 76 19 3d
       0.039706923 -0.121358305 -0.0049392646 0.037466276
000090 ad 56 92 bd 22 0c f6 bd 61 da 0b bd 59 73 ff bd
       -0.07145438 -0.12014033 -0.03414381 -0.12473173
0000a0 66 11 a0 3d 6e 1a 0b be b8 dc 0a be f6 f2 2d bd
       0.078158185 -0.13584301 -0.1356076 -0.042468034
0000b0 b9 5d e8 bd e9 d9 c3 3d d1 e9 92 3d 11 72 02 3d
       -0.11346001 0.095630474 0.07173503 0.031847063
0000c0 80 45 ad 3d 17 cc 41 bd 5a 86 c3 3d a0 e1 aa bd
       0.08460522 -0.047313776 0.0954711 -0.08343816
0000d0 01 d8 b7 3d 05 ff e6 bd 6f 0d ae 3b 89 7c 4f 3d
       0.08976746 -0.1127911 0.00531166 0.050655875
0000e0 60 dc 6d 3d 0e 68 a9 3d 79 27 b9 bd 07 34 1e 3e
       0.058071494 0.082718 -0.09040732 0.15449534
0000f0 88 0e 92 bd d2 09 81 bc bf e9 1d 3e d0 ab 8a 3d
       -0.07131678 -0.015751753 0.15421198 0.06771052
000100 5a 0f 4f 3d 47 e0 d0 3d 0b 87 1a bd 32 47 09 be
       0.05055175 0.101990275 -0.037726443 -0.13406065
000110 d5 de 3b bd e3 7e de bd 9b 5f e8 bd c8 6c 81 3d
       -0.045866806 -0.108640455 -0.1134636 0.063195765
000120 87 5f c6 3d 14 44 bd 3d 9a 03 77 3c a3 dd 81 bd
       0.09686189 0.092415005 0.015076542 -0.06341102
000130 0b cf 49 bc bc 64 f6 3d 36 b7 90 3d 61 01 8e bd
       -0.012317429 0.12030932 0.07066195 -0.06933857
000140 13 81 e7 bd d2 a7 d9 ba 7a 34 be bc fd 4c e0 bd
       -0.11303916 -0.00166058 -0.023218382 -0.10952184
000150 7d c3 32 3d b0 2e d4 3d 72 b3 d6 bd 6c 02 ef bd
       0.043643463 0.103604674 -0.10483445 -0.11670384
000160 b7 8a 1e 3e 1a e6 08 3e 52 40 be 3d 96 cd a3 bd
       0.15482603 0.13369027 0.09289612 -0.07998197
000170 6d 5f a3 3c db 02 cc bd 06 a0 e6 3c 4d 2a ff bd
       0.019942963 -0.09961482 0.028152477 -0.1245924
000180 b3 78 33 bd aa d6 75 bd c0 1c 71 bd eb 3b cb bd
       -0.04381628 -0.060019173 -0.05886531 -0.09923538
000190 07 df ab 3d d1 b4 0d 3e 42 b8 04 3e a1 95 18 bc
       0.083921485 0.13838507 0.12960914 -0.009313018
0001a0 0e 0e e0 3d e1 da af 3d c7 b9 a6 bd 13 d0 1b 3e
       0.10940181 0.0858667 -0.08140903 0.15216093
0001b0 dd 79 f4 3d 87 b0 94 3d ff a4 03 be 77 aa fc 3d
       0.11937306 0.072602324 -0.1285591 0.12337201
0001c0 4f 16 09 3d 21 f8 a8 bc 04 bc 8b bd 11 aa 40 3d
       0.03346854 -0.02062613 -0.068229705 0.047037188
0001d0 76 01 93 3d f5 d0 bc 3c 80 83 c0 bd e3 2d 69 bd
       0.07178013 0.023048857 -0.09400082 -0.056928527
0001e0 77 d7 c2 bb d4 da f9 bd 4b 05 ce 3d fa 10 70 bb
       -0.0059460956 -0.12199941 0.10059603 -0.0036631213
0001f0 a1 58 ec bd c5 98 0a 3e 10 6d ef bc bc 4f 99 3d
       -0.11540342 0.1353484 -0.02922681 0.07485911
000200 2c 50 47 bd 84 8a ea 3d 53 a7 12 3d 13 6e fa bd
       -0.048660442 0.11452201 0.035804104 -0.12228026
000210 79 d9 05 bd 62 4e d0 3d ff bc 3e bd 48 fd 83 3d
       -0.0326781 0.101712 -0.04656696 0.06444794
000220 3c ef c1 3d 5b 2b 0a 3e 87 4d d5 bc 4f 38 10 3d
       0.094694585 0.13493101 -0.026037944 0.03520995
000230 82 0b 04 be 02 dd 56 bd 21 fa ce 3b 3c 22 af 3d
       -0.12895015 -0.052456863 0.006316439 0.085514516
000240 be 1c f2 bd b4 a1 08 3e fd 6b 6b 3d 4d 00 da 3d
       -0.118218884 0.13342935 0.057476033 0.106445886
000250 50 35 8c 3d 72 85 c3 3d 09 e2 a0 3d 78 c2 e6 bd
       0.06846106 0.09546937 0.07855613 -0.11267561
000260 59 38 09 3e fa 5c 19 3d f3 d2 f3 bd f0 55 6d bc
       0.13400401 0.037442185 -0.1190547 -0.014485821
000270 9b 10 e7 bc f0 c1 ca 3d 0b 77 15 3d ab 54 9a bc
       -0.02820616 0.09900272 0.03649048 -0.018839201
000280 56 c7 26 bd db 48 31 ba 4d 83 5d bd e6 56 35 3e
       -0.040717445 -0.00067628705 -0.054080296 0.1770893
000290 ea e9 07 bc db a2 1c 3e 71 8f 38 3e d8 07 49 3e
       -0.008295516 0.152965 0.18023469 0.19631898
0002a0 fc e2 be 3d 2a df ab 3c ec 22 47 3e 43 13 a3 3d
       0.093206376 0.020980436 0.19446915 0.07962658
0002b0 90 b6 07 3e 4a d6 16 3d ca 13 6b bd 49 e1 e6 bc
       0.13253236 0.036825456 -0.05739192 -0.028183596
0002c0 39 dd 5a bd 32 d1 6a bd e9 db 61 bd 85 2d bc 3d
       -0.05343363 -0.05732841 -0.055141363 0.0918837
0002d0 8e aa 8b bd c9 b2 fe 3d 65 12 00 be 27 40 d2 3d
       -0.0681964 0.12436444 -0.12507017 0.10266142
0002e0 93 9c b3 bb a6 66 d5 3c 47 8a 8a bd 8a 62 0c 3e
       -0.0054813116 0.026049923 -0.067646556 0.13709465
0002f0 14 97 0b be a1 7a 8e 3c 90 5b 84 bd ef 23 bf 3d
       -0.1363185 0.017392458 -0.06462777 0.09333026
000300 98 d4 d9 3d 17 eb 9c bc 6c 89 db 3d a8 fd 8f 3d
       0.10636252 -0.019155068 0.107195705 0.07030803
000310 ff 91 97 3d b0 92 b7 bd 7d 99 31 3d 44 4b 13 bd
       0.074008934 -0.08963525 0.04335927 -0.03596045
000320 c7 cd 10 bd 52 33 d5 3c 72 03 8b bd 68 77 37 3d
       -0.035352495 0.026025448 -0.067877665 0.04479161
000330 2b a3 01 be 2e f4 ab 3c 17 ca c4 bd 73 20 9d bd
       -0.126599 0.020990457 -0.09608858 -0.07672205
000340 49 2b 22 3e a3 a1 e9 3d c7 00 a3 3d bd 73 11 3e
       0.15836824 0.11407783 0.07959133 0.14204307
000350 33 af b1 3d 98 6f bb bd 2c 6b 89 bd a9 70 99 bd
       0.08675995 -0.09152144 -0.067098945 -0.07492191
000360 1b f4 e3 bd 74 c2 97 bb 94 0a 9b bd 7b 33 d3 bd
       -0.11130544 -0.004631335 -0.07570377 -0.103125535
000370 93 3a 0e be 5b 87 5b bd ba 97 b8 3d b4 6f 14 bd
       -0.13889532 -0.053595882 0.090133145 -0.03623934
000380 9e 71 3e 3d bd 9c 07 3e bb be 8f bc 35 92 37 bb
       0.046495073 0.13243385 -0.017547002 -0.002801073
000390 dd 22 96 3d 7a 12 e7 bd 20 91 29 3d be d0 6c 3c
       0.073308684 -0.11282821 0.041398168 0.014454065
0003a0 cb de 64 3d b1 2e e4 3c 65 6d 2c 3e cc 6e 10 3e
       0.055876534 0.027854295 0.16838606 0.14104766
0003b0 ea d8 26 3e d3 c2 78 bd 6b 20 6d bd 8f 6e 23 3e
       0.16293684 -0.060732674 -0.057892244 0.15960144
0003c0 0b be 81 3d 56 ca 3f bd 66 07 f1 3c c2 cf 6b 3d
       0.06335076 -0.046823822 0.029422473 0.05757118
0003d0 89 95 64 bd 26 ba d3 bd ec c6 68 3c 94 1a 0d be
       -0.05580667 -0.10338239 0.014207583 -0.1377967
0003e0 1d 69 7a bd 1b f8 f3 3d e7 43 8c 3d 24 17 b0 bd
       -0.0611354 0.11912557 0.06848889 -0.08598164
0003f0 43 95 35 3d 70 6b 95 3c fd 74 2f 3e 60 27 4a bc
       0.0443318 0.018239707 0.17134471 -0.012338489

conv2.bias f4 [10]
000000 56 f8 09 be af dd 31 3e 0d dd 62 bd 16 71 43 3e
       -0.13473639 0.17369722 -0.05538659 0.19086108
000010 ab f7 01 3d e5 6e 6b bd c8 e0 ba bd 98 c2 13 3e
       0.031730335 -0.057478804 -0.09124905 0.144297
000020 7f 85 b6 3d 24 9c 35 bd
       0.08912181 -0.04433836

fc1.weight f4 [32, 780]
000000 87 b5 95 bc c0 e0 78 3a 20 09 04 3b 3c 50 58 3c
       -0.018275036 0.00094939396 0.002014704 0.013202723
000010 f5 99 0e 3d 1c 41 05 3c 88 0b c8 3c 22 07 a1 3c
       0.034814794 0.008133199 0.024419561 0.019656722
000020 4c 67 4f bc a6 c3 f2 3c db 5c 85 bc 58 0b d7 3b
       -0.012658905 0.029634308 -0.016279629 0.0065626316
000030 6b f4 a1 bc e8 6a e9 3b 7c ff 39 3c 20 df 0c 3b
       -0.019769868 0.00712334 0.011352416 0.0021495298
000040 4c ba 84 bc 05 6a e3 bc 9c 51 bf 3c 94 48 86 3c
       -0.016202115 -0.027760515 0.023354344 0.01639203
000050 fe 90 1b bc a0 f6 e8 ba 90 c1 42 bb e0 e1 b7 bb
       -0.009495018 -0.0017773695 -0.0029717423 -0.005611643
000060 c0 40 e7 bb 66 ea dd 3c 90 3f 4d bb a4 f9 4c 3c
       -0.0070572793 0.027089309 -0.0031318404 0.012510691
000070 68 d4 1e 3c 42 d5 4c bc 18 64 dc bc dc 1b 7d bc
       0.009694196 -0.0125020165 -0.026903197 -0.015448537
000080 98 ae 08 3c 70 7c c1 3b 74 3a be bb e2 87 af bc
       0.008342408 0.0059047267 -0.005805308 -0.021427099
000090 ce ad fd 3c 64 31 9a 3c d8 df a4 3b d6 7d 9a 3c
       0.030966666 0.01882238 0.005031567 0.018858831
0000a0 d4 0b b6 3c 48 2f 4f bc e0 8f 09 3c 00 c0 dd 37
       0.022222437 -0.01264555 0.008396119 2.643466e-05
0000b0 c0 d0 06 bd 14 a8 53 3c f1 75 93 bc 28 a9 4e 3c
       -0.032913923 0.012918491 -0.018000575 0.012613572
0000c0 9f 88 04 3d b3 a5 0e 3d 8b 96 0c 3d 80 de d5 b9
       0.032356855 0.03482599 0.034323256 -0.000407923
0000d0 69 75 03 3d d5 9c 81 bc 71 bc 03 3d fc fd 43 3c
       0.032094393 -0.015821854 0.032162134 0.01196241
0000e0 40 a6 04 bd d4 0d c8 3c 86 ab 81 3c 3c 19 91 3c
       -0.03238511 0.024420656 0.015828859 0.017712228
0000f0 ea bc d4 3c 86 d8 d2 3c fa 1d 09 bd 34 b0 b2 bb
       0.025968987 0.025738012 -0.033475854 -0.005453134
000100 70 07 6e 3b a0 5a fd bb 1f e1 a6 bc 8f ae 05 3d
       0.003632035 -0.0077317506 -0.020371018 0.032637175
000110 5a 40 f9 3c 3e 35 9d 3c 48 e5 2b 3c 48 15 01 3c
       0.030426193 0.019190427 0.010491677 0.007878609
000120 28 1f e9 bb f4 fa cb bb d0 2c de bb 00 e1 a7 bc
       -0.00711431 -0.0062249843 -0.0067802444 -0.02049303
000130 f5 49 ff bc 80 3f ba bc 87 3d af 3c 40 cc d9 bb
       -0.031163195 -0.022735357 0.021391643 -0.006646663
000140 4e b6 02 3d e0 ab 0f bd 4f b8 b9 3c 0b b5 94 ba
       0.03191214 -0.035076022 0.022670893 -0.0011345459
000150 94 71 d5 bc 69 ce b3 bc 65 2c 71 bc 4f 69 d5 3b
       -0.026055135 -0.02194901 -0.014720057 0.006512798
000160 82 09 8f 3c 6a 9f f9 bc 05 57 4d bb 28 23 03 3d
       0.017460588 -0.030471522 -0.0031332385 0.03201595
000170 0b 36 3f bc eb 2c d2 3c 33 1e e4 3c c0 51 a1 bc
       -0.0116706 0.025656184 0.027846431 -0.019692302
000180 5b a5 aa bc 84 37 82 bc b7 39 bb bb bc 9b e4 3c
       -0.0208308 -0.015895613 -0.0057136673 0.027906291
000190 dc 44 d8 3c 6c 6e b2 bb b1 a7 04 3d 1d 0e 8d 3a
       0.026400022 -0.005445292 0.032386485 0.0010761652
0001a0 ab 4f 03 bd c8 cd 69 ba 6f fc eb bc b3 86 c5 bc
       -0.0320584 -0.00089189084 -0.028806893 -0.024112081
0001b0 e0 c7 02 3d 10 87 a8 bc a4 e9 0e bd fc 4d 0f bd
       0.031928897 -0.020572215 -0.034890786 -0.03498648
0001c0 33 1b 0a 3c 78 9f f1 bc 1e ac 56 bc 4b 5b be 3c
       0.008429336 -0.029494986 -0.013102559 0.023236891
0001d0 28 1b 8d bc 9e 0a c5 3c 02 b7 c7 bb e4 7c c8 3c
       -0.017224863 0.024052914 -0.0060948143 0.024473615
0001e0 d0 e8 5d bb 69 93 02 3d 90 7e fb bc 53 ce 25 3c
       -0.003386069 0.031878863 -0.030699998 0.010119992
0001f0 11 c2 bc 3c 24 33 54 3c 22 c4 bc bc a6 ae ab bc
       0.023041757 0.012951646 -0.023042742 -0.020957302
000200 e7 df 10 3d f0 51 7d bc 57 08 5b 3b 64 d4 87 bc
       0.03536978 -0.01546143 0.003342172 -0.016580768
000210 26 fa a7 bb 56 57 6c bc ea f3 a0 3c bf 47 9a 3b
       -0.0051262556 -0.014425119 0.019647557 0.00470826
000220 84 76 0e bc 16 b5 06 3d bc 6f a2 3c 35 d4 ec ba
       -0.0086952485 0.03288754 0.01982867 -0.0018068614
000230 59 55 11 3d d7 18 88 3c a1 92 bd 3b b1 fb fd 3c
       0.035481784 0.016613407 0.005785302 0.031003805
000240 14 2a 2b 3c d5 7a b6 3c 6a 36 13 bc 7c 36 05 3d
       0.010447044 0.022275368 -0.008985141 0.032522663
000250 33 a5 8c 3c c8 24 ba bc bd dd a1 bc d7 99 c7 3b
       0.017168617 -0.022722617 -0.019759053 0.006091337
000260 cf 41 02 bd 1e 51 89 bb dd ff 36 bc 1e 29 ef bc
       -0.03180104 -0.004190578 -0.011169401 -0.02919441
000270 ba a5 d0 3c 76 7c 7b bc 10 0c f3 ba ee 7b fe bc
       0.02546965 -0.015349498 -0.0018543024 -0.031064954
000280 7e 36 86 3c cc 20 64 bc 77 da 09 3c 10 d4 04 3d
       0.016383406 -0.013923835 0.0084139025 0.0324288
000290 12 f9 0c bc 8e db 7a 3a c9 e7 07 3d e8 bb a9 3c
       -0.008604305 0.00095694594 0.033180032 0.020719483
0002a0 50 90 a9 bc 91 46 0a 3d 84 2c 80 3c ae ca ee bc
       -0.020698696 0.033758704 0.015646227 -0.02914938
0002b0 00 3e 0e bd 30 6f 07 3d 8e f5 41 3b 67 28 ed bb
       -0.034727097 0.03306502 0.0029595825 -0.0072374824
0002c0 6d 8f ab bc d3 47 ba 3c 73 a6 36 b9 1d 92 bb 3b
       -0.020942414 0.022739327 -0.0001741888 0.005724205
0002d0 15 c1 c0 bb 80 2f b8 bc 1d 4f a6 3c b4 43 d8 bc
       -0.005882392 -0.022483587 0.020301396 -0.02639947
0002e0 95 8e a5 bc ca 9d 4e 3c ad 44 d0 bc 78 d7 cd 3a
       -0.02020959 0.012610862 -0.025423372 0.0015704473
0002f0 79 b2 98 ba 7b a6 da bc 66 0c d2 bc 33 23 e4 bc
       -0.0011649869 -0.026690712 -0.025640678 -0.027848816
000300 9f 37 77 3b ec 14 81 bb 2f c7 a9 3c 21 4e 29 3c
       0.0037722362 -0.0039392617 0.020724861 0.010333569
000310 85 36 bd bc 13 2f b1 3c 4e 8a e1 bc b9 80 96 bb
       -0.023097286 0.021628892 -0.02753177 -0.0045929817
000320 36 91 45 bc f4 43 1c 3b 24 74 f2 bc 26 03 37 3c
       -0.012058547 0.0023844214 -0.029596396 0.011170184
000330 b7 a9 23 bc be 46 18 bc 55 2e ea bc 15 0c 76 bb
       -0.009989194 -0.00929421 -0.028586546 -0.0037543823
000340 27 44 c9 3c e6 bd a9 3c 8c 95 04 3d 59 43 e2 bc
       0.02456863 0.020720433 0.03236918 -0.027620004
000350 03 d0 d1 bb 4f 41 a1 bb 15 35 ae 3c ac a9 c3 bc
       -0.0064029708 -0.0049211155 0.021265546 -0.023884617
000360 21 76 4f bb 3c 80 f0 bc 8a 60 dd bc fd 0c 03 bd
       -0.0031656104 -0.029358022 -0.027023572 -0.03199481
000370 ca 55 29 bc 6b bf 34 bc a1 09 15 bc 0b 17 0a 3b
       -0.010335395 -0.011031966 -0.009096534 0.0021070864
000380 78 a1 c3 bc 67 d4 9a 3b 40 80 c8 bc 8d 71 9a 3c
       -0.023880705 0.0047250274 -0.024475217 0.018852973
000390 48 2e 5d 3c 2b ab 17 bc c1 09 42 3c 2c 90 ab 3c
       0.013499804 -0.009257118 0.011843146 0.02094277
0003a0 71 20 45 3b 0c e3 e6 3c 0b 5a 0c 3d a2 ae 11 bd
       0.003007915 0.028184436 0.03426556 -0.035566933
0003b0 d2 64 bd bc 2b d7 47 bc 45 ec c0 3c 2f 1f 0a bd
       -0.023119364 -0.012197296 0.023550162 -0.033721145
0003c0 cb 8d 30 bb 41 28 a2 3c f9 d8 d0 bc 99 44 c9 bc
       -0.0026939984 0.019794585 -0.025494086 -0.024568843
0003d0 98 ad d6 3c 5d 3a e5 bc b6 e6 77 bc e9 76 d2 bc
       0.026205823 -0.027981931 -0.015130689 -0.025691466
0003e0 23 b7 85 3c ba 87 a7 3c 44 7a c2 3c 41 45 62 bc
       0.016322678 0.020450462 0.023739941 -0.013810457
0003f0 d6 b1 53 bc 3e 31 0e bd 26 d9 d1 3b e7 e3 07 3d
       -0.012920817 -0.03471493 0.00640406 0.03317633

fc1.bias f4 [32]
000000 95 4a 0c bd 2e 7f 8f 3c de e4 c3 39 a9 16 dd bc
       -0.034250814 0.017516699 0.00037363818 -0.026988344
000010 d7 b4 c1 3c 66 da 49 3d 24 f4 38 3c 25 0d 58 3d
       0.023645801 0.049280547 0.011288676 0.05274691
000020 95 5e 95 3c 88 63 5c bc 62 63 7b 3c 87 93 cc bc
       0.018233577 -0.0134514645 0.015343519 -0.02497269
000030 09 f0 78 bc a0 83 48 3b 13 c8 3a 3d 78 66 bd b9
       -0.015193948 0.0030596033 0.045600962 -0.00036125234
000040 6b 9b 09 3d 86 27 b9 3c 04 aa e4 3c 34 7c 81 3c
       0.033595484 0.022601854 0.027913101 0.015806295
000050 97 d9 8c 3c f0 b2 da bc f7 2e ff 3b e7 b5 e4 3b
       0.017193599 -0.026696652 0.007787581 0.0069796923
000060 ae d3 ad 3c 9b d0 14 3d 68 5e b1 bc c6 77 f0 ba
       0.0212191 0.036331754 -0.021651462 -0.0018346242
000070 7d 0b e1 3b f5 8a c2 ba 7d c7 7b bc 1c 3f e5 b9
       0.0068678246 -0.0014842438 -0.015367386 -0.00043725304

fc2.weight f4 [2, 32]
000000 76 e9 53 3d 4e 38 8d bd 23 63 8d bb 32 dd 13 3e
       0.051736318 -0.06895505 -0.0043147965 0.14439848
000010 c3 e3 aa 3c 87 ac 01 bd fe 38 89 be 4e 2a af bd
       0.020860558 -0.031658676 -0.26801294 -0.08552991
000020 f8 51 c5 bd e5 b1 ef 3d 79 65 64 3e 36 4c 0c 3e
       -0.09634775 0.117038526 0.22304334 0.13700947
000030 ce 0b c4 3c 1e be bb 3d 6a 38 b0 bd 33 2a 05 3e
       0.02393141 0.09167121 -0.0860451 0.13004379
000040 27 f0 ed bd fd c2 52 3e a0 4d 10 be 0d 86 eb 3d
       -0.11618071 0.20582195 -0.14092112 0.115001775
000050 5f eb 9f 3c 22 3b d1 bd 4a 3b cb bd 28 2a c0 bc
       0.019521413 -0.10216357 -0.09923418 -0.023457602
000060 c3 a5 18 be 29 8a 46 be 23 55 05 3e 71 9c 5d 3e
       -0.14906983 -0.19388641 0.13020758 0.21641709
000070 65 ad de bd ca cb 34 3d 8c 7d 40 3e b4 1a 48 3e
       -0.10872916 0.04413966 0.18797892 0.19541436
000080 cb 5f e1 bd 76 79 40 be 98 98 73 3e cd bb 18 be
       -0.11004599 -0.18796334 0.23788679 -0.1491539
000090 3f 55 1d 3e db 7e c7 3d d2 f3 33 3e d5 5f 2d 3e
       0.1536455 0.09740993 0.17573479 0.16931088
0000a0 cc a1 04 be e8 79 2a be 88 56 7c bd 58 b5 32 3e
       -0.12952346 -0.16648066 -0.06160596 0.1745199
0000b0 af c4 2e 3e b0 3c 23 3c 23 c8 83 3e 3b d7 f3 3d
       0.17067216 0.0099631995 0.2573863 0.11906286
0000c0 86 42 05 3e d6 69 b7 3d 81 1f 5b 3d d5 9e f8 bd
       0.13013658 0.089557335 0.05349684 -0.1213967
0000d0 f9 99 af 3c 73 c7 e0 bd dc 38 d3 bc 96 76 2a be
       0.021435725 -0.10975542 -0.025783949 -0.166468
0000e0 bd 90 65 3e bf 16 d7 bc fb 14 91 bd 62 e5 03 be
       0.22418495 -0.026255963 -0.0708408 -0.12880471
0000f0 7d a3 b3 3d 58 7c e9 bd 4b 09 57 be 1e 23 36 be
       0.08771417 -0.1140067 -0.20999639 -0.17786834

fc2.bias f4 [2]
000000 21 45 06 3d 6f 07 cf bd
       0.03278077 -0.1010884
