classifier/models/white_model.pth (torch_old, 489520 bytes, 8 tensors)

conv1.weight f4 [6, 3, 3, 3]
-0.41996443 -0.25504625 -0.05485191 -0.47457242 -0.27046347 -0.5372588 -0.28299895 -0.1977313
-0.4395369 -0.18680006 -0.026306817 -0.25336185 -0.6911286 -0.6840881 -0.33170712 -0.320707
-0.45865223 -0.51426995 0.28072596 0.49723995 0.33187288 -0.18288095 -0.03231356 0.2579624
0.16275199 0.10579275 0.4034646 0.28114766 0.45056072 0.46315292 0.1141477 0.23742342
0.31748742 0.33226404 0.3099086 0.29034063 0.08319228 0.188168 0.121250086 0.23342435
-0.18025514 0.011072296 -0.025881574 -0.17157137 -0.22299506 0.016732274 0.010364522 -0.21858276
-0.032562517 -0.17749973 -0.17322068 -0.34926265 -0.21797524 -0.25199535 0.14840502 0.10730431
-0.18121897 0.0041067987 -0.20273358 0.0015378783 -0.035550945 -0.20125054 -0.3179332 -0.02060803
0.19712219 -0.19132453 -0.10306119 -0.16521789 -0.27483824 -0.41253567 -0.19523229 -0.3390403
0.3581319 0.13945161 0.25966612 0.23519836 0.30591303 -0.13635577 -0.13345496 0.0004598822
-0.016319895 -0.10225062 0.12105254 -0.04445081 -0.1393237 0.17524275 0.13178404 -0.11221564
0.168883 0.13474931 -0.033405147 0.22430825 0.11614066 0.22798689 0.31367016 0.24543391
0.11816589 0.28282169 -0.018910058 0.24217467 0.49655145 0.39055017 0.20412964 0.33224088
0.41946918 0.42670718 0.44862023 0.43232262 0.09649168 0.1719423 -0.16505243 0.13046934
0.20801686 0.24519718 0.17576268 0.21696694 0.31681588 -0.019260265 0.06078198 0.015053102
0.34079444 0.30569556 -0.0963712 0.2016295 0.028222648 0.17673585 -0.10361727 0.06286074
-0.107150935 0.3049354 0.13898338 0.14384839 0.0892159 0.1844922 0.2778108 0.61969274
0.32097626 0.377914 0.6693674 0.65592504 0.69455886 0.43317425 0.4616696 0.540374
0.39023712 0.32017833 0.23415886 0.38854185 0.44306344 0.35725772 0.18715167 0.00064995355
-0.009513818 -0.5020114 -0.2870257 -0.5161238 -0.36675268 -0.16439326 -0.23944508 -0.33484784
-0.44328806 -0.17868601
00000000: 9405 d7be 6c95 82be 65ac 60bd 28fb f2be
00000010: 307a 8abe cb89 09bf 3de5 90be 137a 4abe
00000020: fb0a e1be 8448 3fbe 6581 d7bc a5b8 81be
00000030: ceed 30bf 6620 2fbf 84d5 a9be b533 a4be
00000040: 77d4 eabe 32a7 03bf 50bb 8f3e 3c96 fe3e
00000050: 3eeb a93e 2545 3bbe 395b 04bd a613 843e
00000060: 75a8 263e dfa9 d83d e992 ce3e 96f2 8f3e
00000070: e5af e63e 6122 ed3e 45c6 e93d 201f 733e
00000080: b68d a23e 831e aa3e 57ac 9e3e 87a7 943e
00000090: b760 aa3d 1daf 403e f751 f83d cb06 6f3e
000000a0: ce94 38be 9368 353c 9805 d4bc 68b0 2fbe
000000b0: d158 64be 1f12 893c f5cf 293c 29d4 5fbe
000000c0: 4660 05bd 7dc2 35be c360 31be 8ed2 b2be
000000d0: e734 5fbe 8905 81be 7cf7 173e 5dc2 db3d
000000e0: 7791 39be 5392 863b 6499 4fbe a292 c93a
000000f0: de9d 11bd 9f14 4ebe 24c8 a2be 2cd2 a8bc
00000100: 66da 493e 94ea 43be bf11 d3bd e12e 29be
00000110: 99b7 8cbe e037 d3be f9ea 47be b196 adbe
00000120: 105d b73e 67cc 0e3e f5f2 843e d7d7 703e
00000130: a2a0 9c3e d9a0 0bbe 6ba8 08be 581c f139
00000140: 4db1 85bc c668 d1bd 65ea f73d 0d12 36bd
00000150: dfaa 0ebe d672 333e 65f2 063e 50d1 e5bd
00000160: aaef 2c3e b9fb 093e d6d3 08bd 10b1 653e
00000170: 28db ed3d 6575 693e 6099 a03e 0753 7b3e
00000180: f500 f23d 01ce 903e 44e9 9abc a3fc 773e
00000190: fe3b fe3e 31f6 c73e 5c07 513e 7a1b aa3e
000001a0: aac4 d63e 5d79 da3e 8db1 e53e 6459 dd3e
000001b0: 6e9d c53d a411 303e 8103 29be c199 053e
000001c0: 5f02 553e f814 7b3e 22fb 333e 952c 5e3e
000001d0: b135 a23e b4c7 9dbc 87f6 783d 49a1 763c
000001e0: 9c7c ae3e 2184 9c3e 445e c5bd f777 4e3e
000001f0: 2f33 e73c 3efa 343e 4b35 d4bd 22bd 803d
00000200: f371 dbbd 7e20 9c3e a951 0e3e fe4c 133e
00000210: d3b6 b63d 86eb 3c3e 383d 8e3e 2fa4 1e3f
00000220: 0057 a43e f27d c13e a95b 2b3f b4ea 273f
00000230: 9cce 313f 04c9 dd3e f55f ec3e f355 0a3f
00000240: 29cd c73e 6aee a33e 57c7 6f3e f5ee c63e
00000250: 36d9 e23e 7cea b63e b0a4 3f3e a561 2a3a
00000260: d8df 1bbc d283 00bf 08f5 92be b020 04bf
00000270: 02c7 bbbe b556 28be 1731 75be 2d71 abbe
00000280: a7f6 e2be 77f9 36be

conv1.bias f4 [6]
0.58949953 -0.26464537 0.24688052 0.1501615 -0.041477293 -0.7503242
00000000: 71e9 163f 997f 87be 3fce 7c3e f0c3 193e
00000010: 18e4 29bd 3f15 40bf

conv2.weight f4 [12, 6, 3, 3]
-0.13110387 -0.07557347 0.1271079 -0.14028557 -0.12846224 0.018635217 -0.25257576 -0.1130823
-0.082958184 -0.14611503 -0.12816933 0.03168267 -0.014921038 0.0993302 0.050580986 0.15892307
-0.04872031 -0.02746051 -0.09023804 0.1466579 0.014908314 -0.14151695 0.055202097 -0.014659747
0.11577492 0.05452079 -0.05685961 -0.22868446 0.15266334 0.008630377 0.1924058 0.124985576
0.0038160873 0.30158508 0.13866366 -0.051823664 -0.25457802 0.12069853 -0.10998797 0.11447664
0.0338293 -0.033210453 0.2887447 0.18553038 0.0008536307 -0.23999539 -0.0038575279 -0.3058968
0.08034842 -0.17300148 -0.063123345 0.11374322 0.13832127 -0.19247557 -0.076447904 -0.13024205
0.05773228 -0.044781957 -0.104261674 -0.1707171 -0.056484792 -0.1309648 -0.06824242 -0.09230385
0.10263066 0.048014756 0.22476554 0.18307249 0.1749706 0.059625164 0.054237958 0.1296879
0.0037687903 0.06493257 -0.07096183 -0.0823397 -0.10229134 0.11211346 0.031912882 0.06078835
0.049073517 -0.24143362 -0.05285887 -0.2628289 -0.19068319 -0.078953184 0.048401512 -0.029358152
-0.005914952 -0.0036477959 0.030265983 0.030979205 0.07375047 0.13414653 -0.0666744 0.028171642
0.031530634 0.09521975 0.07373826 -0.034388304 0.006176371 -0.0655401 0.2627559 0.3117198
0.16727038 0.24149857 0.21304807 0.074252896 0.030802231 0.18686539 0.35182786 0.60971254
0.62562555 0.4348179 0.40365422 0.44354415 -0.0027241004 -0.07390745 -0.09465985 -0.104452275
-0.08125907 0.06199209 -0.10364232 -0.07477499 0.10731293 -0.087268874 0.16848776 0.13640915
0.04351001 0.21744233 0.34481052 0.027192371 0.077369764 0.040978268 0.010239346 -0.036498275
0.14869133 -0.082608655 -0.17966767 -0.04789596 -0.252823 -0.02681934 0.062093876 -0.07953883
-0.11696311 0.075936206 -0.23139918 -0.08740289 -0.12091421 -0.00032730988 0.037016064 0.030854039
-0.15012872 -0.11083687 -0.24867706 -0.29303536 -0.25472763 -0.08343953 -0.3004039 -0.005176485
0.10664875 -0.0630608 -0.067479596 -0.07787131 0.13747104 0.010402598 -0.06089652 0.016190631
-0.08051898 -0.08693306 0.119930536 0.013245934 0.023889204 -0.17638618 0.031375196 -0.0818897
-0.16838232 0.010456384 -0.036936574 0.04152854 0.0030360592 -0.11944334 0.026454968 0.1012439
-0.05638009 -0.047910295 -0.07412455 -0.09285477 0.12944695 0.1455469 0.24759577 -0.28752017
0.02964844 0.2643614 -0.109756425 -0.15329798 0.19875608 -0.060562782 0.08889074 0.07912627
-0.107627206 -0.107293665 0.019471914 0.064287454 -0.031765655 0.08860679 -0.016978739 0.09916253
0.015212343 -0.27992806 -0.18043502 -0.081073664 -0.11029751 -0.16458912 0.04596694 -0.12417422
-0.043171994 -0.12409042 0.025908414 -0.1724068 -0.15034989 0.15745834 -0.24031217 0.051885772
0.14109035 0.155923 -0.11836182 -0.028135054 0.22690551 0.09536169 -0.084132664 0.20028865
0.050481185 0.032745995 -0.13102643 0.19818208 0.09476297 0.07415826 -0.055390585 -0.018744225
0.092393845 -0.07100413 0.043292604 0.18492226 -0.23044512 -0.1260904 0.1735742 -0.19206358
-0.23030342 0.0850144 -0.22873291 -0.20732962 0.020921908 -0.17972952 -0.074181445 0.27312234
00000000: 1840 06be 43c6 9abd 9328 023e 05a7 0fbe
00000010: 9b8b 03be e2a8 983c 9c51 81be b197 e7bd
00000020: fbe5 a9bd 2e9f 15be d23e 03be b0c5 013d
00000030: 5f77 74bc a26d cb3d 022e 4f3d bbbc 223e
00000040: f38e 47bd ddf4 e0bc b9ce b8bd 7d2d 163e
00000050: 0042 743c d2e9 10be 981b 623d 6f2f 70bc
00000060: 671b ed3d 3151 5f3d 9fe5 68bd 422c 6abe
00000070: c753 1c3e 6d66 0d3c 0706 453e 70f8 ff3d
00000080: 5217 7a3b 5c69 9a3e d9fd 0d3e 0d45 54bd
00000090: 0d58 82be ca30 f73d 5f41 e1bd bb72 ea3d
000000a0: 9890 0a3d af07 08bd 58d6 933e adfb 3d3e
000000b0: 30c6 5f3a 5ac1 75be 94ce 7cbb 819e 9cbe
000000c0: b68d a43d 4d27 31be d046 81bd 35f2 e83d
000000d0: 17a4 0d3e 5118 45be b890 9cbd 2c5e 05be
000000e0: af78 6c3d 496d 37bd 2587 d5bd 77d0 2ebe
000000f0: 995c 67bd a31b 06be afc2 8bbd cd09 bdbd
00000100: 0630 d23d 1fab 443d f028 663e 5b77 3b3e
00000110: 7e2b 333e 8439 743d 9f28 5e3d e8cc 043e
00000120: cffd 763b 5efb 843d 7054 91bd b7a1 a8bd
00000130: 1f7e d1bd be9b e53d 15b7 023d 34fd 783d
00000140: 5001 493d 603a 77be 8b82 58bd 8291 86be
00000150: 7442 43be 35b2 a1bd aa40 463d 8280 f0bc
00000160: 37d2 c1bb dc0f 6fbb 5ef0 f73c 1ac8 fd3c
00000170: 7d0a 973d b55d 093e 968c 88bd 37c8 e63c
00000180: 4426 013d 9302 c33d 1604 973d c0da 0cbd
00000190: 2863 ca3b e339 86bd f187 863e bd99 9f3e
000001a0: ed48 2b3e 674b 773e 4629 5a3e e711 983d
000001b0: f654 fc3c a459 3f3e c822 b43e 1f16 1c3f
000001c0: ff28 203f 74a0 de3e c4ab ce3e 3818 e33e
000001d0: d286 32bb ca5c 97bd 06dd c1bd 13eb d5bd
000001e0: 286b a6bd 6beb 7d3d 6d42 d4bd a123 99bd
000001f0: e2c6 db3d 06ba b2bd 0e88 2c3e d7ae 0b3e
00000200: 8d37 323d 34a9 5e3e 018b b03e 89c2 de3c
00000210: 0a74 9e3d d4d8 273d eec2 273c 377f 15bd
00000220: 8a42 183e ba2e a9bd cdfa 37be 8e2e 44bd
00000230: 0472 81be 3cb4 dbbc 2656 7e3d 41e5 a2bd
00000240: 5b8a efbd 7184 9b3d e8f3 6cbe 4900 b3bd
00000250: dfa1 f7bd ca9a abb9 289e 173d 9cc1 fc3c
00000260: 58bb 19be 71fe e2bd 33a5 7ebe bb08 96be
00000270: a96b 82be 58e2 aabd 8ace 99be 819f a9bb
00000280: a96a da3d 0526 81bd be32 8abd fe7a 9fbd
00000290: 35c5 0c3e a96f 2a3c a16e 79bd 37a2 843c
000002a0: 23e7 a4bd f609 b2bd 249e f53d 7905 593c
000002b0: 4bb3 c33c 949e 34be 4783 003d c9b5 a7bd
000002c0: 6a6c 2cbe 4151 2b3c ce4a 17bd d519 2a3d
000002d0: 9ff8 463b b69e f4bd 17b8 d83c f658 cf3d
000002e0: cfee 66bd 963d 44bd 9dce 97bd a42a bebd
000002f0: be8d 043e 3f0a 153e bf89 7d3e d835 93be
00000300: 49e1 f23c 615a 873e fac7 e0bd 25fa 1cbe
00000310: b786 4b3e ae10 78bd 590c b63d f40c a23d
00000320: a76b dcbd c8bc dbbd 9083 9f3c 24a9 833d
00000330: b41c 02bd 7a77 b53d ff16 8bbc b915 cb3d
00000340: 313d 793c bb52 8fbe f5c3 38be f309 a6bd
00000350: a9e3 e1bd 0d8a 28be d447 3c3d 0e4f febd
00000360: 1ed5 30bd 1e23 febd e23d d43c 688b 30be
00000370: 52f5 19be c23c 213e 6514 76be 2d86 543d
00000380: fd79 103e 47aa 1f3e af67 f2bd 7c7b e6bc
00000390: eb59 683e fd4c c33d bf4d acbd 7818 4d3e
000003a0: 5cc5 4e3d aa20 063d cb2b 06be 3ef0 4a3e
000003b0: 1713 c23d 49e0 973d 3de1 62bd 7d8d 99bc
000003c0: fc38 bd3d 9d6a 91bd 9653 313d 435c 3d3e
000003d0: cef9 6bbe d81d 01be 6fbd 313e 51ac 44be
000003e0: a9d4 6bbe 081c ae3d f638 6abe 374e 54be
000003f0: 6c64 ab3c 040b 38be 71ec 97bd b1d6 8b3e

conv2.bias f4 [12]
-0.30554765 -0.32924375 0.26648465 -0.07066577 -0.25891584 -0.17359439 0.119609274 -0.1013129
0.076909974 -0.19054341 -0.44018522 -0.18031685
00000000: be70 9cbe a392 a8be ad70 883e 37b9 90bd
00000010: 9e90 84be bac2 31be b5f5 f43d 237d cfbd
00000020: fa82 9d3d d01d 43be f55f e1be fba4 38be

fc1.weight f4 [128, 936]
-0.027966943 -0.046672773 0.020358793 -0.042699542 -0.007500841 -0.028580442 -0.026063034 -0.033447452
0.085849404 0.054759473 0.014684576 -0.03413035 -0.035433933 0.038522597 0.04832766 0.059308052
0.07256214 -0.015784226 -0.0129231475 0.00084044057 -0.103182375 -0.088933006 0.035694897 0.0018516817
0.0025350337 -0.025072785 -0.09481408 -0.075460374 -0.03557891 0.026841654 0.012617462 -0.043806717
-0.013271469 -0.01794651 -0.028473243 -0.0155413365 -0.02649601 -0.050511688 0.015418433 -0.012408128
-0.034749392 0.0010204227 -0.02902514 -0.02637334 -0.021647096 -0.043596745 -0.014768889 0.036467835
0.008220979 0.012897107 0.026304832 0.012830366 0.0328444 -0.027637146 0.05147158 0.108796075
0.04997363 -0.028870462 -0.003125433 0.020466743 0.008883398 0.015480158 -0.053047203 -0.024868887
-0.004826781 -0.033404097 0.01620679 -0.03477441 -0.0048423405 0.012515796 0.07683826 0.018510463
-0.0223211 0.009980284 0.00451327 -0.02557724 0.038046915 0.0221795 0.038538612 0.011580521
-0.007971225 -0.02543754 -0.03995864 -0.029738218 0.022202147 0.020503597 0.020542381 0.068770416
0.020814389 -0.00476354 0.0045243297 0.044107128 -0.0056657717 0.058117624 0.036985453 -0.012839866
-0.027843479 -0.017317474 -0.052954815 -0.028755773 0.0404707 0.022071993 0.022150613 -0.03951127
-0.07955602 -0.08241784 0.003103478 -0.0042539905 0.011278084 -0.031983722 -0.02761801 -0.020405257
0.0020742796 -0.033432506 -0.026650865 -0.0218225 -0.015039801 -0.05069297 -0.012902363 0.019456252
-0.011516012 0.029776374 -0.02370174 -0.058838926 -0.01334598 0.015345588 0.015541367 0.032168508
-0.010274637 0.01664986 0.012926675 0.020256223 0.040587828 0.06406753 0.035389405 -0.0046530245
0.06272874 0.0110252835 -0.011379119 0.02093615 -0.02955303 0.011305399 0.027086679 0.025664467
-0.02615654 -0.022614388 0.04205812 0.015851822 -0.0023980658 0.0029358438 0.012400047 -0.027811432
0.031048646 0.0067661703 0.0063805995 -0.02075038 -0.045241546 -0.06963169 -0.0065099155 0.0029248444
0.013116302 -0.07337471 -0.042912032 0.035663437 0.023134941 -0.0027649417 -0.01652177 -0.009035483
-0.06970277 -0.011277892 0.010385871 -0.07327169 -0.05791513 -0.05235481 -0.037247527 -0.026410438
-0.016269498 0.020952396 -0.011566028 -0.028457582 -0.016346065 -0.004740645 0.02390392 0.039479513
-0.0364864 -0.01549276 -0.04281156 0.04434184 0.039781354 0.027029665 0.022246437 0.0130155515
-0.020359982 0.029184356 0.014440199 -0.022534769 0.0018731604 -0.012437067 -0.013257786 -0.02860884
-0.025840065 0.018395783 -0.019235922 -0.02356354 -0.005395406 -0.030560385 0.05767626 0.0029859103
-0.06188542 0.011575085 0.019298978 -0.04628692 0.027746065 0.03054656 -0.025959538 0.016712926
-0.0071696895 0.06819557 0.023377333 0.055491135 0.04609709 0.028166117 0.068915464 0.03309637
-0.0038034602 0.04844852 0.060272213 0.014126685 0.093852326 0.009834471 0.02427898 0.025461266
0.00047963337 0.044636097 0.01408193 -0.007044369 0.005726689 0.02522709 -0.018547563 0.007012883
0.033667974 -0.0029551722 0.029833397 0.000465786 0.019852784 0.0070090517 0.0005455566 -0.0057003447
-0.00507907 0.033418138 -0.022708671 0.009625592 -0.03134952 0.00043745578 0.024940379 -0.01682615
00000000: ee1a e5bc f32b 3fbd 7cc7 a63c b7e5 2ebd
00000010: 9dc9 f5bb 8821 eabc 2582 d5bc 3200 09bd
00000020: d0d1 af3d 784b 603d 9397 703c 44cc 0bbd
00000030: 2c23 11bd dfc9 1d3d 39f3 453d 00ed 723d
00000040: 769b 943d ec4d 81bc 9cbb 53bc 0351 5c3a
00000050: 4851 d3bd 8222 b6bd d034 123d 21b4 f23a
00000060: cf22 263b 7165 cdbc e22d c2bd f88a 9abd
00000070: 31bb 11bd 07e3 db3c 79b9 4e3c ac6e 33bd
00000080: 9370 59bc 8f04 93bc b840 e9bc 17a1 7ebc
00000090: 290e d9bc 58e5 4ebd 989d 7c3c 764b 4bbc
000000a0: 6155 0ebd b4bf 853a 21c6 edbc e70c d8bc
000000b0: 4055 b1bc 8092 32bd 36f9 71bc 4c5f 153d
000000c0: 49b1 063c 634e 533c 3b7d d73c 7536 523c
000000d0: d987 063d 4c67 e2bc ddd3 523d 7ad0 de3d
000000e0: 26b1 4c3d bf81 ecbc 11d4 4cbb dfa9 a73c
000000f0: ac8b 113c 7da0 7d3c 0648 59bd d6b9 cbbc
00000100: f929 9ebb bcd2 08bd 1ac4 843c 9d6f 0ebd
00000110: 7fac 9ebb 0e0f 4d3c 615d 9d3d 41a3 973c
00000120: bdda b6bc 5884 233c 0ee4 933b 5c87 d1bc
00000130: 15d7 1b3d c8b1 b53c aada 1d3d 3abc 3d3c
00000140: be99 02bc 6362 d0bc acab 23bd 909d f3bc
00000150: 47e1 b53c 29f7 a73c 7f48 a83c 81d7 8c3d
00000160: f082 aa3c 7817 9cbb d440 943b ada9 343d
00000170: f0a7 b9bb bf0c 6e3d 0f7e 173d 4d5e 52bc
00000180: 0218 e4bc 60dd 8dbc 26e7 58bd 3a91 ebbc
00000190: 9bc4 253d 53d0 b43c 3475 b53c 92d6 21bd
000001a0: 44ee a2bd afca a8bd b963 4b3b 0f65 8bbb
000001b0: b6c7 383c 5d01 03bd 2a3f e2bc ed28 a7bc
000001c0: a3f0 073b 86f0 08bd ea52 dabc 19c5 b2bc
000001d0: 7f69 76bc 6fa3 4fbd 6f64 53bc b862 9f3c
000001e0: a8ad 3cbc 95ed f33c 272a c2bc 1601 71bd
000001f0: 19a9 5abc 106c 7b3c 38a1 7e3c 20c3 033d
00000200: f356 28bc 4a65 883c 68ca 533c 61f0 a53c
00000210: 6c3f 263d d635 833d 7bf4 103d 6678 98bb
00000220: ed77 803d 64a3 343c 7c6f 3abc 4a82 ab3c
00000230: 3219 f2bc 483a 393c e2e4 dd3c 4a3e d23c
00000240: 3d46 d6bc cf41 b9bc 2345 2c3d aedb 813c
00000250: de28 1dbb 4967 403b 9129 4b3c cdd4 e3bc
00000260: bb59 fe3c c0b6 dd3b 5914 d13b b3fc a9bc
00000270: 334f 39bd 0f9b 8ebd 2151 d5bb bfae 3f3b
00000280: c2e5 563c 7b45 96bd 87c4 2fbd d313 123d
00000290: 7d85 bd3c 0634 35bb aa58 87bc 9009 14bc
000002a0: 53c0 8ebd e8c6 38bc 8029 2a3c 780f 96bd
000002b0: 6a38 6dbd ff71 56bd dd90 18bd b45a d8bc
000002c0: 9c47 85bc 5ca4 ab3c 707f 3dbc e01f e9bc
000002d0: 2fe8 85bc 6a57 9bbb 27d2 c33c 45b5 213d
000002e0: c372 15bd 58d5 7dbc 2d5b 2fbd ca9f 353d
000002f0: c6f1 223d 516d dd3c 293e b63c 2e3f 553c
00000300: fac9 a6bc 0814 ef3c 9696 6c3c d69a b8bc
00000310: d584 f53a d7c4 4bbc 2f37 59bc 165d eabc
00000320: 8bae d3bc c1b2 963c a794 9dbc 5308 c1bc
00000330: f2cb b0bb c659 fabc f13d 6c3d 43af 433b
00000340: 917b 7dbd 6da5 3d3c e418 9e3c 5a97 3dbd
00000350: b74b e33c c83c fa3c 19a9 d4bc 8ce9 883c
00000360: b7ef eabb 1eaa 8b3d d281 bf3c ac4a 633d
00000370: 4dd0 3c3d a1bc e63c 8d23 8d3d 0f90 073d
00000380: 7943 79bb f571 463d ffdf 763d 9d73 673c
00000390: a635 c03d c320 213c b6e4 c63c 2594 d03c
000003a0: 4d77 fb39 57d4 363d e5b7 663c 73d4 e6bb
000003b0: f3a6 bb3b 0ba9 ce3c 0ff1 97bc 54cc e53b
000003c0: 6ee7 093d 90ab 41bb 2b65 f43c bd34 f439
000003d0: 4ea2 a23c 30ac e53b af03 0f3a f5c9 babb
000003e0: 546e a6bb 75e1 083d 8907 babc a9b4 1d3c
000003f0: 5b68 00bd 525a e539 c44f cc3c fed6 89bc

fc1.bias f4 [128]
0.017503042 -0.018861048 0.0048109493 -0.022854066 -0.03786411 0.00020689634 0.0055253427 0.019280924
0.017442996 -0.003683221 0.034390185 -0.00995415 -0.009564991 -0.012547935 0.033254914 0.021657716
0.012743502 0.023264887 -0.014932285 -0.0032661764 0.0105947135 0.0005209831 0.020978078 0.012006613
-0.035000205 0.025617082 -0.0012586508 0.0027533965 0.010552731 0.011206831 -0.023355523 0.028495004
0.0027597968 -0.025677627 -0.027204653 -0.013347832 -0.013689304 -0.011125895 0.03479655 0.03012959
0.031027973 0.027049314 -0.00673731 0.01123547 0.0102201495 -0.0013189703 0.010881474 -0.030260624
0.0015490493 -0.008630254 -0.0073416764 0.013453015 0.022094676 -0.007821452 -0.011369049 0.014248894
0.029266942 0.017821798 0.022298492 0.0014883875 -0.0159577 -0.01848124 -0.01624988 0.009787291
-0.02797787 -0.030557508 0.015188224 -0.001825432 -0.037045125 0.009987974 0.005343026 -0.01196774
-0.03531732 0.048107672 -0.007205268 -0.002711088 0.0088020135 -0.0049957833 0.04875451 -0.0048302663
-0.0008370971 0.0006176722 -0.024291998 0.00037239734 -0.016152022 0.0046224394 -0.027008386 -0.008954386
-0.015699439 -0.027183713 0.0338421 -0.0006210507 0.009607629 -0.0129720215 0.00880698 -0.017422901
0.027200649 0.012198485 -0.0071124975 0.002581471 -0.0142945 0.03919127 0.014386403 -0.03214836
0.0363557 0.0067846184 0.0003124131 0.0028351329 0.002664624 -0.03355409 -0.013936723 -0.0121850865
-0.020716626 0.047700886 -0.00043828058 -0.00606998 0.019058215 -0.023343537 0.0006192419 0.037804887
0.03195853 0.008638157 -0.028863855 0.034039136 0.008469986 0.0010866744 0.014994184 0.014648695
00000000: 8a62 8f3c 7c82 9abc 2ba5 9d3b 7338 bbbc
00000010: 6617 1bbd 50f2 5839 ef0d b53b 07f3 9d3c
00000020: 9de4 8e3c 3262 71bb b9dc 0c3d bb16 23bc
00000030: 7bb6 1cbc db95 4dbc 4e36 083d 866b b13c
00000040: 1fca 503c 0196 be3c 8ba6 74bc 590d 56bb
00000050: 7395 2d3c 9692 083a 38da ab3c 63b7 443c
00000060: 605c 0fbd eada d13c 50f9 a4ba 5472 343b
00000070: 5de5 2c3c db9c 373c 1554 bfbc 5b6e e93c
00000080: b5dd 343b e359 d2bc 4bdc debc ddb0 5abc
00000090: 1a49 60bc 6349 36bc d486 0e3d 54d2 f63c
000000a0: 602e fe3c 8696 dd3c a7c4 dcbb fa14 383c
000000b0: 6a72 273c 4de1 acba 3648 323c 21e5 f7bc
000000c0: 7809 cb3a e965 0dbc 7292 f0bb 096a 5c3c
000000d0: e5ff b43c 8c25 00bc 3f45 3abc 3174 693c
000000e0: 3ac1 ef3c 05ff 913c 54ab b63c ff15 c33a
000000f0: b9b9 82bc f865 97bc 781e 85bc e05a 203c
00000100: d931 e5bc bd53 fabc 07d8 783c 5543 efba
00000110: a1bc 17bd 99a4 233c 8d14 af3b 5714 44bc
00000120: e5a8 10bd 8d0c 453d 2b1a ecbb 82ac 31bb
00000130: 5236 103c abb3 a3bb cfb2 473d 3647 9ebb
00000140: a370 5bba 48eb 213a 0300 c7bc 533e c339
00000150: 3f51 84bc d577 973b b140 ddbc 6bb5 12bc
00000160: 1c9c 80bc 61b0 debc 049e 0a3d 02ce 22ba
00000170: 5169 1d3c 9a88 54bc 274b 103c 79ba 8ebc
00000180: e5d3 de3c 28dc 473c f40f e9bb e62d 293b
00000190: 7b33 6abc 0687 203d f3b4 6b3c 00ae 03bd
000001a0: b7e9 143d 8151 de3b 60cb a339 a3cd 393b
000001b0: f9a0 2e3b 0370 09bd da56 64bc f5a3 47bc
000001c0: eab5 a9bc 0162 433d 06c9 e5b9 afe6 c6bb
000001d0: f91f 9c3c f23a bfbc 9f54 223a 4cd9 1a3d
000001e0: f3e6 023d 0e87 0d3c e473 ecbc 9f6c 0b3d
000001f0: b2c5 0a3c be6e 8e3a 2aaa 753c 1401 703c

fc2.weight f4 [10, 128]
0.21234721 -0.06030049 -0.114887305 -0.03888936 -0.1482155 -0.02194641 0.033155728 -0.021955468
0.034209818 -0.037375145 -0.114356734 0.066688016 0.19237295 -0.032022897 0.1454291 0.009284926
0.04757071 0.1758649 -0.036961716 -0.14742239 -0.037408136 -0.04742622 -0.051956076 -0.0712654
-0.04217555 -0.06958628 -0.03420364 0.054593693 0.008625536 -0.07345628 0.0067147524 0.029602973
0.1630384 0.027643621 -0.1614956 0.052745122 0.063950695 0.06541082 0.109802455 0.051054753
-0.03698586 -0.022651184 0.011722795 -0.054619785 -0.18709882 0.036600947 0.012365199 -0.009398707
-0.2778917 0.028018776 0.17099316 0.01879299 0.039782543 0.005102342 0.13173138 0.06428828
0.18787141 0.07689188 0.06715292 -0.123159386 -0.14391452 -0.00016555446 -0.006979092 0.17239887
0.028938504 0.013391696 -0.15550216 0.07358574 -0.040422007 -0.07312101 0.04250448 -0.07182629
-0.01858869 0.27903607 -0.264941 -0.030642554 -0.07366379 -0.024951143 0.067665584 -0.037208922
0.24601936 -0.19776367 0.041971397 0.25374296 0.018163081 -0.052520268 0.028021047 -0.0045982418
-0.23884685 0.086221196 -0.06725441 0.031362176 0.07841276 0.059518628 0.006872811 -0.057146315
-0.02987219 0.18615367 0.11098194 -0.024012988 0.06858912 -0.12912409 0.14605404 -0.057373766
-0.2608316 -0.055812977 -0.12507117 0.15036745 0.25410995 0.02495541 -0.0121805305 0.024602558
-0.049381983 -0.16825233 -0.043219794 0.2730252 -0.18011831 0.25439206 0.07870467 0.18549547
-0.25996557 0.08372881 -0.0060204617 0.30112052 -0.034424774 0.09365766 -0.09251991 0.05986908
-0.30514142 0.0062705674 -0.105894566 -0.048399743 -0.0067730667 0.07865309 0.07223496 0.16162783
-0.1394129 -0.10782817 0.06993036 0.06557821 -0.23334214 0.0020683685 -0.25899923 -0.0033085193
0.08419644 0.07586999 -0.015308525 0.12576613 -0.084401384 -0.029322391 0.07122774 -0.16374882
-0.08165534 -0.11732767 0.014014977 -0.13835134 -0.21431598 0.07358651 -0.08169432 0.030357394
0.2364365 -0.068724215 -0.14077975 0.027687656 0.049191404 0.0037839382 0.13627732 -0.033944394
0.087671496 0.16151454 -0.012558309 0.19406426 0.11084532 0.05420441 -0.08242166 -0.025436832
0.08243345 0.01535416 0.06811624 0.28975156 -0.015249692 -0.00023770037 -0.13876648 -0.032430377
-0.38577092 0.0445919 0.18638696 0.016899018 0.015144664 0.18965666 -0.048357774 0.015859507
-0.007989158 0.073157 0.08450589 -0.19667795 -0.09879701 -0.045371898 0.16658731 -0.085500814
0.08204177 -0.04929729 0.048402935 0.0151763335 -0.05875063 0.045052443 0.010986659 -0.04375517
-0.114504516 -0.052552693 -0.045984894 -0.21055482 0.10830998 -0.01305597 0.040695656 0.046621606
-0.0072657717 0.030730277 0.27640125 -0.05346062 0.008527959 -0.06756692 0.23869424 0.08775475
0.06439853 0.0022801687 -0.13212346 0.07224482 -0.22736377 -0.11807822 0.057404235 -0.08595812
-0.030292489 -0.14932948 -0.081462145 -0.23766162 -0.061316736 0.08913816 -0.011202109 0.2357087
0.07617803 0.3583818 -0.024317866 0.08660171 0.13476035 -0.041873064 -0.12493894 -0.13555144
0.38012257 -0.068058774 -0.042704694 0.08362421 -0.2816009 -0.08533884 -0.13877992 0.07361156
00000000: 8c71 593e a6fd 76bd 094a ebbd 734a 1fbd
00000010: cec5 17be f5c8 b3bc 4dce 073d f4db b3bc
00000020: 981f 0c3d ae16 19bd dd33 eabd ba93 883d
00000030: 6afd 443e 712a 03bd 5eeb 143e cd1f 183c
00000040: 81d9 423d ee15 343e 2b65 17bd e5f5 16be
00000050: 4639 19bd ff41 42bd e5cf 54bd 98f3 91bd
00000060: 45c0 2cbd 4083 8ebd 1e19 0cbd a39d 5f3d
00000070: 1f52 0d3c 3f70 96bd 6d07 dc3b ef81 f23c
00000080: 8af3 263e e074 e23c 1a5f 25be 450b 583d
00000090: 95f8 823d 1cf6 853d 1ce0 e03d ca1e 513d
000000a0: 7c7e 17bd fa8e b9bc f710 403c ffb8 5fbd
000000b0: d596 3fbe e0ea 153d 6797 4a3c 09fd 19bc
000000c0: d247 8ebe a287 e53c d518 2f3e c2f3 993c
000000d0: 05f3 223d 8c31 a73b 97e4 063e 93a9 833d
000000e0: 5d61 403e 7d79 9d3d 7887 893d fd3a fcbd
000000f0: 545e 13be b098 2db9 deb0 e4bb 5489 303e
00000100: 7110 ed3c d868 5b3c f53b 1fbe 1fb4 963d
00000110: 8c91 25bd 78c0 95bd 2d19 2e3d a919 93bd
00000120: 4f47 98bc d1dd 8e3e 59a6 87be 1806 fbbc
00000130: 0bdd 96bd 5766 ccbc 4194 8a3d 6268 18bd
00000140: 80ec 7b3e 8f82 4abe 33ea 2b3d 99ea 813e
00000150: beca 943c 7e1f 57bd 658c e53c d9ac 96bb
00000160: 4594 74be bd94 b03d aebc 89bd a075 003d
00000170: de96 a03d cec9 733d 5135 e13b 4112 6abd
00000180: 86b6 f4bc 119f 3e3e 804a e33d e3b6 c4bc
00000190: 7478 8c3d 1b39 04be 318f 153e c100 6bbd
000001a0: b88b 85be 269c 64bd a812 00be edf9 193e
000001b0: b31a 823e 4a6f cc3c d990 47bc 4e8b c93c
000001c0: c344 4abd 574a 2cbe 3d07 31bd f6c9 8b3e
000001d0: ef70 38be ad3f 823e ea2f a13d 86f2 3d3e
000001e0: 351a 85be 037a ab3d 4b47 c5bb 782c 9a3e
000001f0: fe00 0dbd 96cf bf3d 147b bdbd 4839 753d
00000200: 7f3b 9cbe 5579 cd3b 40df d8bd cf3e 46bd
00000210: 9af0 ddbb df14 a13d ecef 933d c481 253e
00000220: 41c2 0ebe 04d5 dcbd a637 8f3d de4d 863d
00000230: 3ef1 6ebe 778d 073b 8c9b 84be bed3 58bb
00000240: 2f6f ac3d ba61 9b3d 9cd0 7abc d6c8 003e
00000250: a2da acbd 8335 f0bc d9df 913d c5ad 27be
00000260: ea3a a7bd 7d49 f0bd 139f 653c f9ab 0dbe
00000270: a675 5bbe 86b4 963d 5a4f a7bd 12b0 f83c
00000280: 691c 723e 48bf 8cbd 9128 10be 39d1 e23c
00000290: ed7c 493d f3fb 773b 488c 0b3e 4709 0bbd
000002a0: 1d8d b33d 1164 253e 5ec1 4dbc c8b8 463e
000002b0: df02 e33d 7205 5e3d b0cc a8bd e760 d0bc
000002c0: ded2 a83d 0490 7b3c 8780 8b3d 515a 943e
000002d0: d8d9 79bc 353f 79b9 cd18 0ebe b7d5 04bd
000002e0: c483 c5be ffa5 363d 39dc 3e3e cf6f 8a3c
000002f0: 5321 783c 5b35 423e cd12 46bd cceb 813c
00000300: f5e4 02bc 56d3 953d 6d11 ad3d f265 49be
00000310: 1656 cabd e2d7 39bd dd95 2a3e 0d1b afbd
00000320: 8405 a83d f5eb 49bd 2842 463d 28a6 783c
00000330: 80a4 70bd e988 383d 6301 343c 9f38 33bd
00000340: 5881 eabd 7e41 57bd a85a 3cbd af9b 57be
00000350: 9fd1 dd3d b5e8 55bc 7db0 263d 4cf6 3e3d
00000360: b615 eebb 10be fb3c 7784 8d3e 86f9 5abd
00000370: dab8 0b3c 8660 8abd 436c 743e c3b8 b33d
00000380: 60e3 833d e26e 153b 5f4b 07be 18f5 933d
00000390: 0cd2 68be fed2 f1bd b420 6b3d d00a b0bd
000003a0: f427 f8bc d4e9 18be a0d5 a6bd 915d 73be
000003b0: 4227 7bbd 118e b63d 0d89 37bc 9f5d 713e
000003c0: 3a03 9c3d d27d b73e 4336 c7bc 3d5c b13d
000003d0: 9efe 093e 1783 2bbd fddf ffbd ffcd 0abe
000003e0: 6d9f c23e 6662 8bbd 1eeb 2ebd 2b43 ab3d
000003f0: fe2d 90be 21c6 aebd 531c 0ebe a8c1 963d

fc2.bias f4 [10]
-0.018142471 0.051601656 0.038080692 -0.10025202 0.064743645 0.039174903 0.029783837 0.02718553
-0.019942839 0.043748606
00000000: 859f 94bc 425c 533d 80fa 1b3d ee50 cdbd
00000010: 5198 843d dd75 203d 3cfd f33c 30b4 de3c
00000020: 2a5f a3bc bd31 333d
